foolball_predict_model/best_stacking_model.pt (torch, 84429 bytes, 16 tensors)

lstm.weight_ih_l0 f4 [256, 1]
0.16511682 -0.12129731 -0.17576428 0.10427283 0.09999485 -0.024171447 -0.065931514 0.105174996
-0.07264639 -0.09619765 -0.038389005 -0.043148663 0.12141887 0.21513155 -0.11322399 0.04560664
0.018943837 0.10315979 -0.07151079 0.16529845 0.10140692 -0.07939853 0.22855909 -0.10455448
-0.051199023 -0.037249524 -0.028184557 0.06998518 -0.06828133 -0.060794868 -0.14066309 -0.10525578
0.046848994 -0.055668563 0.05521373 -0.0035195556 -0.021566123 0.13691846 -0.0056551225 0.014388569
-0.0034442784 0.02212482 0.11210327 0.1659996 -0.17868932 0.083635405 -0.10029085 0.0028259617
-0.018848015 0.031101257 -0.04180466 -0.10214771 -0.13252251 -0.069120415 0.020786446 0.092543036
0.07021251 0.13286757 0.011615251 -0.04627713 -0.10104262 0.0030105729 0.13603048 -0.10329171
0.0029729581 0.124145426 -0.019363366 0.04546411 0.06530741 0.21139874 -0.0006849973 -0.039313547
0.07209052 0.047708362 -0.066133775 0.09673584 0.040024817 -0.030185053 -0.07211702 -0.061340295
-0.057750933 0.06985573 -0.10826901 -0.09079497 -0.16709976 0.04197668 0.048860688 0.06195241
-0.089490354 0.120848306 -0.028236343 -0.012530082 0.07881697 0.17457275 -0.0009050815 0.09947186
0.20265031 0.072960824 -0.03792368 0.09995463 -0.10887348 0.05195713 -0.036734022 -0.063782
-0.097673275 0.022989392 0.07331889 -0.09608164 0.16979311 0.044541813 -0.049500175 -0.06245508
0.105193265 -0.060631473 0.06477589 -0.08942698 -0.11914096 0.04258839 0.10223575 -0.086396374
0.041600063 -0.080571264 0.049268633 -0.021809105 -0.02836156 -0.027824538 -0.068681836 0.055128798
0.09636539 -0.117405884 -0.09258044 -0.0007552936 -0.119275294 0.052187152 0.063118026 -0.018765349
0.0884557 -0.0511805 -0.011374927 0.034765735 -0.13930747 0.096988924 -0.023421064 0.00797092
-0.067197844 0.010554683 -4.9104133e-06 0.10160645 -0.10102836 0.08129357 -0.087583676 0.08880976
0.068293124 0.07045588 0.052902643 0.0007456006 -0.056380227 0.061599705 0.0879286 -0.026997484
0.030348508 0.07462034 0.06867494 -0.06328034 -0.047950443 0.05403313 0.06423429 -0.029450074
-0.059455935 0.045674603 0.112426214 0.16150968 0.10389685 0.07641206 -0.08825399 -0.098041974
0.027634578 0.113461204 -0.032055642 -0.05176618 0.05876007 -0.06181081 -0.09624463 0.25639263
0.07592875 -0.12927935 -0.012385671 -0.059313804 -0.03934922 0.023923082 0.012537116 -0.00061380764
0.22992383 -0.028981574 -0.09773995 -0.060852844 0.0631142 -0.0458118 -0.028106166 0.019354397
-0.052738555 0.02519539 -0.049640287 0.01684493 0.10623749 0.21102025 -0.041135278 -0.07923597
0.076736294 -0.013999514 -0.07278536 0.060393557 -0.022706253 0.15484124 0.15688445 -0.07810055
-0.07716782 -0.014653355 -0.12530349 0.10461575 -0.00018508095 -0.011098882 0.091947466 0.04846924
0.13849233 -0.017369123 0.04058166 -0.03832728 0.047168747 -0.062267058 -0.060111508 0.08069089
-0.09713994 0.03986911 -0.064674854 -0.044923954 -0.13701117 -0.021599734 -0.17007673 -0.10255337
-0.046168096 0.041021205 -0.04631984 -0.006511342 -0.16159435 0.075601295 0.10453576 -0.008047164
-0.012358908 -0.054786585 -0.02949944 -0.119010136 -0.09030191 0.027190337 -0.01752391 -0.118622705
00000000: 6214 293e b96a f8bd 8dfb 33be fe8c d53d
00000010: 1aca cc3d 3303 c6bc 1a07 87bd fd65 d73d
00000020: a1c7 94bd 4603 c5bd ca3d 1dbd a7bc 30bd
00000030: 75aa f83d 724b 5c3e fbe1 e7bd 07ce 3a3d
00000040: 1b30 9b3c 7145 d33d 4074 92bd ff43 293e
00000050: 6eae cf3d b29b a2bd 650b 6a3e a920 d6bd
00000060: 11b6 51bd f592 18bd 4de3 e6bc 6454 8f3d
00000070: 15d7 8bbd 0a04 79bd fc09 10be 5890 d7bd
00000080: bbe4 3f3d b804 64bd cb27 623d 58a8 66bb
00000090: 70ab b0bc 5a34 0c3e 9b4e b9bb 08be 6b3c
000000a0: 67b9 61bb 1c3f b53c 6696 e53d cdfb 293e
000000b0: 55fa 36be 0a49 ab3d 4a65 cdbd c533 393b
000000c0: 2767 9abc 10c8 fe3c 5d3b 2bbd d232 d1bd
000000d0: fbb3 07be 018f 8dbd 5648 aa3c 3487 bd3d
000000e0: 94cb 8f3d 700e 083e e54d 3e3c 168d 3dbd
000000f0: 6fef cebd 084d 453b 934b 0b3e 9b8a d3bd
00000100: f6d5 423b f53f fe3d ec9f 9ebc 9338 3a3d
00000110: e4bf 853d e978 583e 6491 33ba 3e07 21bd
00000120: 32a4 933d d869 433d 2571 87bd 711d c63d
00000130: 10f1 233d a546 f7bc 17b2 93bd f63f 7bbd
00000140: 3e8c 6cbd 8510 8f3d 25bc ddbd b7f2 b9bd
00000150: 331c 2bbe bdef 2b3d 2522 483d cfc1 7d3d
00000160: b846 b7bd 517f f73d e74f e7bc f94a 4dbc
00000170: cb6a a13d 33c3 323e fe42 6dba e7b7 cb3d
00000180: 9083 4f3e 7c6c 953d dc55 1bbd 03b5 cc3d
00000190: 0ff9 debd 00d1 543d 6a76 16bd 23a0 82bd
000001a0: ed08 c8bd 4054 bc3c 3728 963d 73c6 c4bd
000001b0: 3fde 2d3e 7a71 363d b2c0 4abd e6d0 7fbd
000001c0: 916f d73d b558 78bd 39a9 843d 7e25 b7bd
000001d0: 2d00 f4bd 2a71 2e3d fa60 d13d 95f0 b0bd
000001e0: d464 2a3d 8c02 a5bd e8cd 493d 02a9 b2bc
000001f0: 8156 e8bc 49f0 e3bc 10a9 8cbd bcce 613d
00000200: 385b c53d 7f72 f0bd d09a bdbd e5fe 45ba
00000210: 9b46 f4bd 32c2 553d 0644 813d cab9 99bc
00000220: 4328 b53d a5a2 51bd e75d 3abc 8466 0e3d
00000230: 9ea6 0ebe 21a2 c63d 88dd bfbc 7698 023c
00000240: 069f 89bd 8ded 2c3c 21c4 a4b6 0b17 d03d
00000250: f5e7 cebd 3e7d a63d 125f b3bd e4e1 b53d
00000260: 44dd 8b3d 2c4b 903d 71b0 583d 6974 433a
00000270: f4ee 66bd f94f 7c3d e913 b43d d429 ddbc
00000280: 6f9d f83c 8cd2 983d 72a5 8c3d 1f99 81bd
00000290: af67 44bd d851 5d3d 448d 833d 4841 f1bc
000002a0: 1188 73bd 4b15 3b3d b73f e63d cb62 253e
000002b0: dfc7 d43d ed7d 9c3d 82be b4bd 3bca c8bd
000002c0: e961 e23c 595e e83d c74c 03bd c608 54bd
000002d0: 66ae 703d 552d 7dbd e81b c5bd e545 833e
000002e0: 8880 9b3d ce61 04be 45ed 4abc 08f3 72bd
000002f0: a62c 21bd 57fa c33c 7a68 4d3c efe7 20ba
00000300: 2771 6b3e c46a edbc e22b c8bd d540 79bd
00000310: 0542 813d 27a5 3bbd e73e e6bc 1d8d 9e3c
00000320: 6204 58bd 9066 ce3c 9d53 4bbd 61fe 893c
00000330: 0b93 d93d b115 583e 777d 28bd 7846 a2bd
00000340: eb27 9d3d 385e 65bc 7e10 95bd 3c5f 773d
00000350: 7702 babc b48e 1e3e 51a6 203e 2ef3 9fbd
00000360: 290a 9ebd a014 70bc 8f4f 00be c840 d63d
00000370: 4a12 42b9 16d8 35bc f44e bc3d af87 463d
00000380: efd0 0d3e b149 8ebc f438 263d 11fd 1cbd
00000390: 0434 413d be0b 7fbd 7c37 76bd 4441 a53d
000003a0: 4ef1 c6bd cb4d 233d 4074 84bd 2e02 38bd
000003b0: a84c 0cbe edf1 b0bc 9828 2ebe 8007 d2bd
000003c0: c21a 3dbd da05 283d dfb9 3dbd 185d d5bb
000003d0: fd78 25be dad4 9a3d d816 d63d 41d8 03bc
000003e0: 047d 4abc e667 60bd cfa8 f1bc 96bb f3bd
000003f0: 35f0 b8bd 45be de3c 4e8e 8fbc 76f0 f2bd

lstm.weight_hh_l0 f4 [256, 64]
-0.047053717 0.09876429 0.058130845 -0.03166534 -0.041152764 -0.113606334 0.031352747 -0.2788591
-0.015707064 0.07726675 0.1381816 -0.057652947 -0.14769837 0.03969027 -0.06740702 -0.0036463547
-0.10116544 0.06941272 -0.034879815 -0.066657975 0.020837285 0.18839923 -0.12339419 0.12333225
-0.039292768 0.099974625 0.047335174 0.012166839 -0.09603995 -0.08922515 -0.040238388 -0.07352388
0.15846452 0.13821217 0.034589656 0.035424918 -0.002995371 0.15687819 0.0808259 0.06614986
-0.020136701 0.06677944 0.01995356 0.05754754 -0.008668222 0.10413252 -0.04839687 -0.12278988
0.12452423 0.064027175 -0.14016809 -0.07042753 -0.05383192 0.09933085 -0.08419193 0.030430939
-0.023446338 -0.027755134 -0.028319664 -0.12208785 -0.07804689 0.069390416 0.019197576 0.1587962
0.08474071 0.16418676 -0.07775719 0.0064521516 -0.08904049 -0.0010066306 -0.040775124 -0.06554914
0.128915 -0.060172744 0.011187326 0.015045647 -0.14155264 0.16707265 0.10338031 -0.13135387
0.014244142 -0.070129134 0.11839243 -5.8511974e-05 -0.1334391 -0.10762469 -0.07098623 0.0913825
-0.030967535 0.014270928 0.073829524 0.010978486 0.01832506 0.08982456 -0.052402794 -0.02284551
0.14257854 0.024605611 -0.03139509 0.007633192 0.079181336 0.18863721 0.097013555 -0.003959157
0.017988097 0.12365293 -0.06963223 0.1391604 0.037296865 -0.09208009 -0.048979573 -0.03700462
0.034721397 0.11127861 0.09286324 0.10464134 -0.07563704 0.03396523 -0.18513398 0.05051955
0.034698352 -0.10837746 -0.14114839 -0.107737064 -0.07124347 -0.09218827 -0.08883117 0.13228957
-0.015685383 -0.11117342 -0.03821264 -0.12700951 0.022532027 -0.0014679591 0.036757674 -0.042438008
0.040072985 -0.046426367 -0.0797204 0.03888259 0.09814462 0.14704438 -0.050034154 0.117281966
0.10113036 0.055113256 0.0804023 -0.08428823 0.041517477 0.035754126 -0.10205875 -0.04839194
0.0599277 -0.023958165 0.022538656 0.13211946 0.013799006 -0.024448358 -0.090954825 0.12246421
0.14221865 -0.081055716 0.08274351 0.10764976 -0.030091928 -0.0037962135 0.12324642 -0.0024116933
-0.081059374 0.0006621876 0.119263016 0.07440121 0.14964378 -0.03903975 -0.030487724 0.008762011
-0.03988367 0.04169375 -0.007479057 0.11659691 -0.082116805 -0.05318332 -0.055262934 -0.099772125
0.015385999 0.061618436 0.10937931 0.08063314 -0.001510347 -0.071152 -0.11147449 0.032707345
-0.053358458 0.114791505 -0.136808 -0.019033613 -0.11458562 -0.0065851933 -0.05784644 -0.0054109157
0.053293575 0.10153549 0.07817836 0.015961513 -0.025184618 -0.12884897 -0.082108594 -0.07574117
-0.050485253 0.07704662 0.010437784 0.009539504 -0.09190817 -0.0032984433 0.04994115 0.09031972
0.0068677985 -0.051539045 0.05618977 -0.084446386 -0.058596533 -0.05076736 -0.1346118 -0.014782343
0.0745789 -0.03663154 0.021697039 -0.0004235517 -0.08929678 0.1745772 -0.019867713 0.0033540165
0.0486334 0.04864926 0.086976394 -0.027684959 -0.016007168 0.08484022 -0.01342444 -0.03161965
0.0087387515 0.16854137 -0.14612348 -0.10665476 -0.025346076 -0.09532504 -0.08116938 0.11183019
-0.02125809 0.104765326 -0.043270193 -0.12885897 -0.0058428776 -0.023620263 0.09953073 0.09380493
00000000: 66bb 40bd ef44 ca3d 9c1a 6e3d 84b3 01bd
00000010: cd8f 28bd 70aa e8bd bd6b 003d 9fc6 8ebe
00000020: 1aac 80bc 083e 9e3d 7a7f 0d3e 7f25 6cbd
00000030: 3e3e 17be 4492 223d b10c 8abd aef7 6ebb
00000040: d42f cfbd 4228 8e3d 23de 0ebd fa83 88bd
00000050: f4b2 aa3c baeb 403e 18b6 fcbd 9e95 fc3d
00000060: 74f1 20bd 7fbf cc3d 87e2 413d 6c57 473c
00000070: 98b0 c4bd adbb b6bd 02d1 24bd b093 96bd
00000080: 8644 223e 7e87 0d3e e2ad 0d3d b819 113d
00000090: fc4d 44bb ada4 203e 0d88 a53d 9479 873d
000000a0: b9f5 a4bc a9c3 883d a675 a33c f8b6 6b3d
000000b0: 2905 0ebc 6e43 d53d cc3b 46bd 4379 fbbd
000000c0: 8f06 ff3d ae20 833d 3988 0fbe 4f3c 90bd
000000d0: dc7e 5cbd f96d cb3d d26c acbd 4e4a f93c
000000e0: 8912 c0bc bc5e e3bc a4fe e7bc 3209 fabd
000000f0: 0cd7 9fbd 901c 8e3d 3c44 9d3c 799b 223e
00000100: 8a8c ad3d 9320 283e 293f 9fbd 926c d33b
00000110: dc5a b6bd ebf0 83ba d103 27bd a13e 86bd
00000120: 4b02 043e b277 76bd 0c4b 373c 0482 763c
00000130: 2df3 10be 1815 2b3e 0eb9 d33d a181 06be
00000140: 4360 693c dd9f 8fbd bb77 f23d c16a 75b8
00000150: 42a4 08be 556a dcbd 3b61 91bd c026 bb3d
00000160: a1af fdbc 9cd0 693c ef33 973d 1cdf 333c
00000170: 701e 963c f0f5 b73d 50a4 56bd 8226 bbbc
00000180: 1c00 123e b591 c93c 2398 00bd db1f fa3b
00000190: d329 a23d 1d2a 413e 0baf c63d d1bb 81bb
000001a0: c65b 933c bf3d fd3d 589b 8ebd 1080 0e3e
000001b0: 99c4 183d 7c94 bcbd ce9e 48bd 2892 17bd
000001c0: 0638 0e3d 0ae6 e33d 152f be3d 334e d63d
000001d0: 98e7 9abd 201f 0b3d c393 3dbe 96ed 4e3d
000001e0: dc1f 0e3d 00f5 ddbd 3489 10be 40a5 dcbd
000001f0: 19e8 91bd 34cd bcbd 1eed b5bd eb76 073e
00000200: a27e 80bc e4ae e3bd db84 1cbd c80e 02be
00000210: 1695 b83c 8968 c0ba 378f 163d 7ad3 2dbd
00000220: 9223 243d 9329 3ebd 7344 a3bd 5a43 1f3d
00000230: 0c00 c93d cd92 163e 9df0 4cbd 8731 f03d
00000240: 6f1d cf3d 70be 613d f6a9 a43d 4f9f acbd
00000250: 3b0e 2a3d eb72 123d 2e04 d1bd a036 46bd
00000260: bf76 753d ea43 c4bc fda2 b83c 534a 073e
00000270: 3a15 623c ec47 c8bc 8646 babd 84ce fa3d
00000280: c4a1 113e 8a00 a6bd 6e75 a93d 7a77 dc3d
00000290: 5983 f6bc e5c9 78bb 9e68 fc3d 800d 1ebb
000002a0: 7502 a6bd a896 2d3a 2b40 f43d a95f 983d
000002b0: 383c 193e 25e8 1fbd 64c1 f9bc 8a8e 0f3c
000002c0: 0f5d 23bd 11c7 2a3d e112 f5bb 5cca ee3d
000002d0: db2c a8bd c1d6 59bd 635b 62bd 5455 ccbd
000002e0: 8f15 7c3c 9d63 7c3d 4202 e03d fd22 a53d
000002f0: d6f6 c5ba 24b8 91bd bd4c e4bd 23f8 053d
00000300: 668e 5abd cf17 eb3d 6517 0cbe 61ec 9bbc
00000310: deab eabd 9bc8 d7bb 63f0 6cbd 0d4e b1bb
00000320: 5d4a 5a3d d7f1 cf3d fa1b a03d b8c1 823c
00000330: f94f cebc fcf0 03be 8d28 a8bd 301e 9bbd
00000340: a0c9 4ebd 9eca 9d3d 3d03 2b3c 944b 1c3c
00000350: 5a3a bcbd b22a 58bb 178f 4c3d 8cf9 b83d
00000360: 450b e13b 9b1a 53bd 3f27 663d 3af2 acbd
00000370: eb02 70bd 6ff1 4fbd add7 09be a431 72bc
00000380: d3bc 983d f40a 16bd fdbd b13c 2610 deb9
00000390: 3be1 b6bd 5ec4 323e 9dc1 a2bc 0fcf 5b3b
000003a0: d133 473d 7244 473d ae20 b23d 91cb e2bc
000003b0: 7721 83bc b6c0 ad3d 2ff2 5bbc 9b83 01bd
000003c0: fb2c 0f3c 1c96 2c3e 65a1 15be d06d dabd
000003d0: 93a2 cfbc c639 c3bd 223c a6bd 3a07 e53d
000003e0: 7225 aebc 348f d63d 163c 31bd 9bf3 03be
000003f0: 9c75 bfbb 487f c1bc c4d6 cb3d cd1c c03d

lstm.bias_ih_l0 f4 [256]
0.11438815 0.112532616 -0.08261972 0.045874108 0.103385426 0.08142963 0.111494645 -0.03188093
-0.034319222 0.10273723 -0.01793249 0.1866417 0.17362095 0.19452603 -0.03623211 0.18705441
-0.029419713 -0.058834884 -0.031975362 -0.061291784 0.04870044 0.016037885 -0.09578473 0.012590933
0.073515974 0.1519455 -0.053159777 0.01763074 0.14063433 0.06712772 0.06656625 -0.11946988
0.023329692 0.109871425 0.14415914 0.18416059 -0.04372333 -0.0037794646 0.11873814 0.10095046
0.013812104 0.056499273 0.15324895 -0.067671545 0.08315949 0.10110815 -0.0071115308 -0.014912853
0.10582567 0.0020456836 0.028869549 0.010293074 -0.13453928 0.07418312 0.05210542 0.053480048
0.027223084 0.06792541 -0.006898799 0.09445978 -0.08218687 0.12748742 0.12763941 0.1518648
0.15083995 0.02190454 0.0015148208 0.16306074 0.15151952 0.113994494 0.110395774 0.08212469
0.06068124 -0.081443556 -0.0380606 0.064899094 0.10127359 0.07061609 0.023013242 0.124564596
0.012674449 0.0885825 -0.09273641 0.12804432 0.045028485 -0.078790665 -0.07040971 0.11783255
0.03290009 -0.04363424 0.0088862805 -0.015071691 0.052784335 0.038951427 -0.037350588 0.1514646
0.14991474 0.072017044 0.17916794 0.06720486 0.09671214 0.07043805 0.15632519 0.019471133
0.12369666 -0.020024491 0.15853494 0.12896594 -0.037291132 -0.11106061 -0.06614769 -0.061329927
-0.07500025 -0.001542286 0.2140412 0.10890549 0.061761145 0.11338634 0.059612576 0.12697524
-0.04444234 -0.021852339 0.020618094 -0.033686362 0.06700321 0.035729937 0.12976639 0.015966102
0.01194856 0.16547364 -0.04450156 -0.008665219 -0.05289581 -0.0542677 -0.085759886 -0.118071534
0.0026176365 -0.01111589 0.0007058572 -0.109508485 0.04258318 -0.06767109 -0.11603562 -0.052555736
-0.06726151 0.11423255 0.031418156 -0.15950976 0.11504544 0.10571215 -0.032906342 -0.020077875
0.103954114 -0.049420066 0.11888242 -0.0025612232 -0.08970397 -0.1552493 -0.07824302 -0.06873135
0.038571823 0.033775687 0.07582767 -0.112422444 0.06866593 -0.04018498 -0.080391034 0.052100137
0.016956633 0.013552447 -0.04128044 -0.03565674 -0.016083237 -0.11944008 -0.06405929 -0.064941905
-0.0069031958 0.106775805 -0.07020268 -0.012401032 0.024455748 0.05953656 -0.07108665 -0.09642681
-0.05389553 0.11600795 -0.08555695 -0.0904078 -0.019045364 -0.06535393 -0.100241035 0.14445515
0.05842156 0.10978361 0.048440497 0.07677241 0.080404 0.16718064 -0.013596895 0.13165605
0.058453806 0.098149456 0.100268945 0.08868657 -0.057932805 0.17539306 0.1463276 0.11901048
0.13596694 0.18668564 0.020554535 0.08224059 -0.050654225 -0.056421548 -0.045016427 0.039953712
0.017035784 0.102919236 -0.10575736 0.012873752 -0.06488111 0.063876174 0.114609234 0.11273471
0.20910491 -0.039328314 0.10889974 -0.03116721 0.066289976 -0.041197054 0.12629814 -0.014036555
-0.05287082 0.022260016 0.11620675 0.044541992 -0.08605164 0.009698619 0.0017843868 0.08678637
0.014206959 0.12307389 0.1730663 0.06418006 -0.05714766 0.057802666 0.1131026 0.1287858
0.100745514 0.11017984 0.15558179 -0.039408457 -0.057616994 0.25439063 0.023051986 0.07981034
00000000: 5644 ea3d 8077 e63d 8734 a9bd 7de6 3b3d
00000010: bdbb d33d 94c4 a63d 4e57 e43d 9495 02bd
00000020: 5092 0cbd e667 d23d 28e7 92bc 001f 3f3e
00000030: b1c9 313e d531 473e 1f68 14bd 318b 3f3e
00000040: 9c01 f1bc d9fc 70bd 99f8 02bd 180d 7bbd
00000050: 1d7a 473d e261 833c c92a c4bd 334a 4e3c
00000060: 8b8f 963d 9a97 1b3e 11be 59bd 576e 903c
00000070: 7202 103e 427a 893d e353 883d a0ac f4bd
00000080: e91d bf3c 4504 e13d 749e 133e 9894 3c3e
00000090: 3c17 33bd e5b0 77bb fb2c f33d 1dbf ce3d
000000a0: 2a4c 623c c86b 673d 4bed 1c3e 6197 8abd
000000b0: 864f aa3d ca11 cf3d d807 e9bb 0a55 74bc
000000c0: 21bb d83d e010 063b d57f ec3c 48a4 283c
000000d0: aac4 09be 52ed 973d 7e6c 553d e50d 5b3d
000000e0: f202 df3c 7a1c 8b3d 520f e2bb 2174 c13d
000000f0: 9751 a8bd 108c 023e e8b3 023e 7282 1b3e
00000100: ca75 1a3e 2671 b33c f48c c63a 65f9 263e
00000110: ef27 1b3e f275 e93d 2e17 e23d fd30 a83d
00000120: e48c 783d e1cb a6bd 6fe5 1bbd d1e9 843d
00000130: 8768 cf3d 2b9f 903d 4486 bc3c b91b ff3d
00000140: 7ea8 4f3c be6a b53d 96ec bdbd 0d1e 033e
00000150: ca6f 383d 005d a1bd f732 90bd 3152 f13d
00000160: 3fc2 063d d1b9 32bd c397 113c 41ef 76bc
00000170: 6334 583d 888b 1f3d eefc 18bd 8919 1b3e
00000180: 4083 193e ac7d 933d cd77 373e b4a2 893d
00000190: 0411 c63d d341 903d b613 203e ed81 9f3c
000001a0: ad54 fd3d 670a a4bc fc56 223e a60f 043e
000001b0: 96be 18bd bf73 e3bd 7178 87bd 1735 7bbd
000001c0: bb99 99bd 8826 caba 9e2d 5b3e d709 df3d
000001d0: 41f9 7c3d 1937 e83d 512c 743d cc05 023e
000001e0: 2c09 36bd ad03 b3bc 47e7 a83c b6fa 09bd
000001f0: fb38 893d 8e59 123d 7be1 043e 58cb 823c
00000200: e5c3 433c ec71 293e 4547 36bd 90f8 0dbc
00000210: 47a9 58bd cf47 5ebd e1a2 afbd 7dcf f1bd
00000220: a78c 2b3b 6c1f 36bc 4609 393a fc45 e0bd
00000230: b36b 2e3d 2497 8abd 15a4 edbd af44 57bd
00000240: 67c0 89bd c1f2 e93d 53b0 003d 8756 23be
00000250: f29c eb3d 9d7f d83d cdc8 06bd 5b7a a4bc
00000260: e5e5 d43d b26c 4abd a078 f33d 32da 27bb
00000270: b7b6 b7bd acf9 1ebe e03d a0bd 06c3 8cbd
00000280: 7dfd 1d3d 6058 0a3d 8a4b 9b3d bd3d e6bd
00000290: b9a0 8c3d 0199 24bd 0ea4 a4bd f466 553d
000002a0: a3e8 8a3c 150b 5e3c ae15 29bd cd0c 12bd
000002b0: fec0 83bc 009d f4bd 8431 83bd 4300 85bd
000002c0: 3434 e2bb 46ad da3d 6cc6 8fbd b32d 4bbc
000002d0: 6c57 c83c 9cdc 733d e195 91bd 6b7b c5bd
000002e0: 8fc1 5cbd 9395 ed3d 7b38 afbd ba27 b9bd
000002f0: 0605 9cbc 48d8 85bd 2c4b cdbd 0dec 133e
00000300: 724b 6f3d 3bd6 e03d 8b69 463d da3a 9d3d
00000310: daaa a43d 6731 2b3e 83c5 5ebc d8d0 063e
00000320: 426d 6f3d 9502 c93d ce59 cd3d 4ea1 b53d
00000330: f34a 6dbd 3d9a 333e e7d6 153e c4bb f33d
00000340: eb3a 0b3e 852a 3f3e fc61 a83c c16d a83d
00000350: ce7a 4fbd 481a 67bd 2563 38bd 81a6 233d
00000360: a18e 8b3c 52c7 d23d 5197 d8bd 6eec 523c
00000370: 63e0 84bd 83d1 823d 3fb8 ea3d 75e1 e63d
00000380: 991f 563e ba16 21bd d406 df3d 6052 ffbc
00000390: 0ac3 873d 3ebe 28bd 4d54 013e 94f9 65bc
000003a0: 138f 58bd a35a b63c cefd ed3d aa71 363d
000003b0: d83b b0bd f5e6 1e3c 16e2 e93a 0dbd b13d
000003c0: 4ec4 683c 2a0e fc3d 4b38 313e d670 833d
000003d0: aa13 6abd 7dc2 6c3d 56a2 e73d 6de0 033e
000003e0: aa53 ce3d f8a5 e13d d550 1f3e c36a 21bd
000003f0: ccff 6bbd 7d3f 823e 85d7 bc3c 9b73 a33d

lstm.bias_hh_l0 f4 [256]
0.044635728 0.11781502 -0.08981388 0.09485018 0.14357036 0.1683179 0.03404496 -0.021642659
0.04762932 0.06112582 0.033523384 0.10901389 0.07940782 0.04391008 0.09174892 -0.003255968
0.08380552 0.020116651 -0.101439685 -0.039552234 0.08282858 0.04442783 0.027254062 0.042115983
0.014493166 0.09581512 0.13340971 0.021142745 0.0891924 0.0939909 0.008133479 -0.023956884
0.23378733 -0.016587978 0.194036 0.027129624 0.13279153 -0.015080618 -0.020907642 0.13598287
0.1155218 0.05197294 -0.050159376 0.04142896 0.031000067 -0.017268779 -0.0117167 0.08223706
0.07003859 0.054335117 0.15178096 0.08024773 -0.11598399 -0.017360806 0.08787675 0.19926581
0.08690616 -0.04289763 -0.0058137616 0.039657068 -0.0761129 0.2519345 0.039403737 0.13695797
-0.052243922 -0.100626096 0.04503962 0.037982624 0.17049393 0.10578831 0.051838215 0.12715964
0.101375245 0.00083880685 0.006962916 0.17844823 0.12350965 0.15487671 -0.068057165 0.0049834894
0.0037446774 0.14962205 -0.044351835 0.083790176 0.0819886 0.08059677 -0.07320837 -0.07552365
0.1252336 0.1340122 -0.10554737 0.007273664 0.007972283 -0.0036763346 0.14276287 0.058857348
0.09026195 0.0660575 0.03388678 -0.003439917 -0.08373003 -0.10417828 0.04765565 0.025047265
-0.083429374 0.1141608 -0.07161348 0.1457011 -0.10706594 0.048100904 -0.102199554 0.026640555
0.105267264 0.15911244 0.04814925 0.08609426 0.037940554 -0.07295633 0.027483812 0.17108369
-0.0701767 -0.08574948 -0.043848306 0.088979416 0.04966644 -0.022677962 0.05322615 0.16402002
-0.099478036 0.084641464 -0.042346947 -0.06391936 -0.04771291 0.021678178 -0.08240033 -0.0244047
-0.10060864 0.1378107 0.16728355 -0.01708825 0.027297836 -0.13419029 -0.11075423 0.07800326
0.08161747 0.048041176 -0.063989714 -0.15011783 0.12541021 0.053465355 -0.0013051131 0.10999427
0.097594865 -0.06253185 0.06825798 -0.15484099 0.116779156 -0.022753775 -0.12216968 -0.10052489
-0.06846244 0.03415179 -0.04261579 -0.041394584 0.001025715 0.1020256 -0.033107165 0.15115647
-0.06576264 0.04397661 -0.12842469 0.1030409 0.07635599 0.04320251 0.08013043 -0.051857784
0.023040405 -0.048154887 -0.029932545 0.10575529 -0.054025162 0.055652276 -0.052463807 0.026772926
-0.059477545 0.081837 0.029836204 -0.014736313 -0.07184155 -0.00259131 0.073193066 -0.025522958
0.04090526 0.09802018 -0.09362502 0.13060655 -0.011741477 0.060881007 0.1279781 0.097494036
-0.050123837 0.08688028 0.110399425 0.04772044 0.15206411 0.08118007 0.1487004 0.023057934
-0.0013068517 -0.024491878 -0.07884704 0.14420618 0.03675989 0.10990972 0.1472194 -0.048347116
0.0028819542 0.20513551 0.029734945 0.1688003 -0.10127353 0.19179149 0.08347829 0.13553487
0.22260278 0.088849775 0.1586197 0.07434138 0.048163224 -0.0125286775 -0.0343236 0.1519832
-0.009566258 0.108466275 0.01909774 0.069335684 -0.015757006 -0.03912493 0.02702465 0.06674708
0.11700928 0.105621375 0.038182653 -0.06817361 0.053365912 -0.006732508 0.033676304 -0.0050346097
0.088867776 -0.002061238 0.11321198 0.10553101 -0.00045309978 0.08696705 0.1725423 0.12333786
00000000: f4d3 363d 0049 f13d 57f0 b7bd d040 c23d
00000010: 1c04 133e 875b 2c3e ba72 0b3d f24b b1bc
00000020: f616 433d 115f 7a3d d14f 093d ad42 df3d
00000030: 91a0 a23d 0edb 333d dce6 bb3d 1462 55bb
00000040: 3aa2 ab3d adcb a43c 9cbf cfbd 8601 22bd
00000050: 08a2 a93d f5f9 353d e943 df3c cf81 2c3d
00000060: be74 6d3c b83a c43d 8e9c 083e 8d33 ad3c
00000070: 81aa b63d 4d7e c03d 4942 053c 3a41 c4bc
00000080: f265 6f3e 83e3 87bc 60b1 463e f23e de3c
00000090: 81fa 073e b214 77bc 8146 abbc 183f 0b3e
000000a0: b296 ec3d 94e1 543d eb73 4dbd 6ab1 293d
000000b0: daf3 fd3c 4177 8dbc 67f7 3fbc e76b a83d
000000c0: 6470 8f3d 808e 5e3d 786c 1b3e ec58 a43d
000000d0: 0489 edbd 4038 8ebc baf8 b33d 560c 4c3e
000000e0: dbfb b13d 6db5 2fbd 5e81 bebb 736f 223d
000000f0: 15e1 9bbd 8ffd 803e d065 213d b63e 0c3e
00000100: b9fd 55bd 0e15 cebd 777b 383d ab93 1b3d
00000110: f695 2e3e 8ba7 d83d 4f54 543d 2336 023e
00000120: d39d cf3d 60e3 5b3a 2c29 e43b 22bb 363e
00000130: a1f2 fc3d 0098 1e3e 8e61 8bbd 8a4c a33b
00000140: 4369 753b 8636 193e 45aa 35bd 2f9a ab3d
00000150: a4e9 a73d eb0f a53d 45ee 95bd 25ac 9abd
00000160: 3d3d 003e 7f3a 093e 3829 d8bd eb57 ee3b
00000170: 2e9e 023c a9ee 70bb 6e30 123e 6714 713d
00000180: 42db b83d 2849 873d ddcc 0a3d 3b70 61bb
00000190: a67a abbd 6c5b d5bd 9232 433d ec2f cd3c
000001a0: 05dd aabd 23cd e93d 17aa 92bd ab32 153e
000001b0: 6345 dbbd 7405 453d 004e d1bd 4b3d da3c
000001c0: 5d96 d73d 5fee 223e 2638 453d 3052 b03d
000001d0: 8e67 1b3d 216a 95bd bb25 e13c 9030 2f3e
000001e0: cdb8 8fbd 6c9d afbd 489a 33bd d73a b63d
000001f0: 096f 4b3d 22c7 b9bc aa03 5a3d ddf4 273e
00000200: 24bb cbbd 8158 ad3d fe73 2dbd 27e8 82bd
00000210: 9d6e 43bd 6f96 b13c 81c1 a8bd 5eec c7bc
00000220: e70b cebd 401e 0d3e 614c 2b3e a8fc 8bbc
00000230: b69f df3c 2e69 09be 1dd3 e2bd 2cc0 9f3d
00000240: 0f27 a73d d3c6 443d 0a0d 83bd 7db8 19be
00000250: 896b 003e 7dfe 5a3d 5410 abba ad44 e13d
00000260: d1df c73d b310 80bd d7ca 8b3d a38e 1ebe
00000270: e929 ef3d 2066 babc 1934 fabd fedf cdbd
00000280: 0936 8cbd bfe2 0b3d e58d 2ebd 5e8d 29bd
00000290: 4971 863a ccf2 d03d 619b 07bd c3c8 1a3e
000002a0: 90ae 86bd d120 343d c381 03be 1b07 d33d
000002b0: 8760 9c3d 1df5 303d 6c1b a43d d468 54bd
000002c0: 3bbf bc3c 0f3e 45bd 1935 f5bc 3b96 d83d
000002d0: 7d49 5dbd a4f3 633d 4ae4 56bd e552 db3c
000002e0: ba9e 73bd 289a a73d 0e6b f43c 9470 71bc
000002f0: aa21 93bd f8d2 29bb 3fe6 953d 8615 d1bc
00000300: 468c 273d cebe c83d 79be bfbd b9bd 053e
00000310: 535f 40bc 5d5e 793d b10c 033e f4aa c73d
00000320: a74e 4dbd 4aee b13d 1819 e23d 8276 433d
00000330: b2b6 1b3e bd41 a63d eb44 183e fee3 bc3c
00000340: ab4a abba 31a3 c8bc 8f7a a1bd c9aa 133e
00000350: 8a91 163d 5918 e13d afc0 163e a007 46bd
00000360: 2bdf 3c3b 0b0f 523e b396 f33c fcd9 2c3e
00000370: 7f68 cfbd fd64 443e aaf6 aa3d a7c9 0a3e
00000380: fcf1 633e dff6 b53d 346d 223e 4b40 983d
00000390: cd46 453d 1545 4dbc e796 0cbd 7ca1 1b3e
000003a0: cbbb 1cbc 9123 de3d dd72 9c3c deff 8d3d
000003b0: d614 81bc 7641 20bd cc62 dd3c b1b2 883d
000003c0: 90a2 ef3d 0550 d83d 6a65 1c3d 9b9e 8bbd
000003d0: 3796 5a3d 5f9c dcbb 2af0 093d 5ef9 a4bb
000003e0: 4f00 b63d d615 07bb afdb e73d a420 d83d
000003f0: 068e edb9 c81b b23d eeae 303e 8f98 fc3d

lstm_bn.weight f4 [64]
0.9802491 1.01159 0.9589209 1.0051223 0.9854997 0.9807811 0.9858381 1.0283543
0.9909155 0.98963153 0.98316157 0.98266256 1.028604 1.0309613 1.0104444 1.0125055
0.98325866 1.0682362 0.98255384 0.97422105 0.97620285 0.9700891 0.9796702 0.9795047
1.0149555 0.9961214 1.0126538 0.9639934 0.9793549 0.98974925 1.0075177 0.9932428
1.0134089 0.99257886 1.0374981 1.0530616 0.993558 1.0062582 1.0046496 1.022456
0.98962146 1.0133039 0.980279 0.9910829 0.9753556 0.9913692 1.0184793 1.0107197
1.0028092 0.9733777 1.0436393 0.9771732 0.9796943 0.97158027 0.99488693 0.97666
0.9838382 0.9753037 1.0557837 0.99366736 1.016252 0.9923107 1.0230235 0.9963887
00000000: 9bf1 7a3f c87b 813f d77b 753f d9a7 803f
00000010: b549 7c3f 7814 7b3f e35f 7c3f 1da1 833f
00000020: a3ac 7d3f 7e58 7d3f 7ab0 7b3f c68f 7b3f
00000030: 4ca9 833f 8af6 833f 3e56 813f c899 813f
00000040: d7b6 7b3f f7bb 883f a688 7b3f 8d66 793f
00000050: 6ee8 793f c257 783f abcb 7a3f d2c0 7a3f
00000060: 10ea 813f d001 7f3f a49e 813f 45c8 763f
00000070: 01b7 7a3f 3560 7d3f 57f6 803f 2945 7e3f
00000080: 62b7 813f a619 7e3f bdcc 843f b9ca 863f
00000090: d159 7e3f 12cd 803f 5c98 803f d7df 823f
000000a0: d557 7d3f f1b3 813f 91f3 7a3f 9cb7 7d3f
000000b0: e8b0 793f 5fca 7d3f 885d 823f 435f 813f
000000c0: 0d5c 803f 482f 793f f995 853f 0628 7a3f
000000d0: 3fcd 7a3f 7cb9 783f e9b0 7e3f 6406 7a3f
000000e0: d2dc 7b3f 81ad 793f ec23 873f fc60 7e3f
000000f0: 8c14 823f 1308 7e3f 6ff2 823f 5413 7f3f

lstm_bn.bias f4 [64]
-0.0146427415 -0.032484572 0.02240775 0.017356258 -0.0034835741 -0.0425051 0.038444098 0.059274383
0.031516347 0.0055846763 -0.0073970836 -6.870123e-06 0.075095735 -0.05987001 -0.05295436 0.031625673
0.031336553 -0.026375663 0.017429085 0.03319935 -0.017964762 0.019073816 -0.03425047 -0.016346645
0.011425046 0.028512819 -0.0068376246 -0.018329402 0.010700723 0.01089416 0.0042138523 -0.028466975
-0.0545233 -0.047010705 -0.004095556 0.032980077 -0.025816191 -0.05734911 0.033817045 -0.023382308
-0.042029347 0.037038468 0.029055908 0.030473804 -0.035391487 0.029367505 -0.003680704 -0.022034626
0.0003037123 -0.037363015 -0.018702293 -0.024062185 -0.010127007 0.0183928 0.027597627 -0.014919911
-0.07390599 -0.02573639 0.008560798 -0.042015117 -0.030921362 -0.022479873 0.019502515 -0.041323613
00000000: 1ce8 6fbc 8b0e 05bd 7590 b73c b62e 8e3c
00000010: ad4c 64bb d419 2ebd 8f77 1d3d b2c9 723d
00000020: 4917 013d a9ff b63b 3c63 f2bb e885 e6b6
00000030: cbcb 993d 413a 75bd ace6 58bd ec89 013d
00000040: c25a 003d c611 d8bc 71c7 8e3c 0bfc 073d
00000050: d62a 93bc b140 9c3c 394a 0cbd 66e9 85bc
00000060: 1e30 3b3c b793 e93c 270e e0bb 8b27 96bc
00000070: 1652 2f3c 6b7d 323c 5b14 8a3b 9333 e9bc
00000080: d353 5fbd 4c8e 40bd 0434 86bb 1e16 073d
00000090: 7a7c d3bc e6e6 6abd be83 0a3d 418c bfbc
000000a0: f726 2cbd a6b5 173d a806 ee3c 33a4 f93c
000000b0: aaf6 10bd 1f94 f03c f737 71bb f681 b4bc
000000c0: 933b 9f39 f609 19bd 8d35 99bc 0f1e c5bc
000000d0: bfeb 25bc 7fac 963c 6b14 e23c a472 74bc
000000e0: 065c 97bd 1fd5 d2bc 9742 0c3c 0b18 2cbd
000000f0: cc4e fdbc b627 b8bc bdc3 9f3c f342 29bd

lstm_bn.running_mean f4 [64]
-0.20914942 0.13561 -0.058586784 0.14608307 -0.21494208 -0.145676 -0.12500057 0.08831304
-0.16598988 -0.03126765 0.26070803 0.075329594 0.14505538 -0.49456948 -0.3069714 0.15242295
0.16834503 0.0488223 0.036048263 -0.18666856 0.020513523 0.2544141 0.09836582 0.15912133
0.1860826 -0.06634694 0.14305095 -0.3425209 -0.08836348 -0.24429241 0.17275001 -0.3522172
-0.12645926 -0.14401451 -0.1926374 0.0038062541 -0.031946283 -0.030625977 0.031226685 0.323112
-0.024512662 0.2769205 -0.1343447 0.035082016 0.0026091565 0.10927615 0.035401583 0.07720186
0.057914592 -0.0022330247 0.068507336 0.17842324 0.043439396 0.24165651 0.14408246 -0.09180795
-0.10485039 0.098581366 0.041398615 -0.17481533 -0.23358442 -0.2934383 0.091641255 -0.03877563
00000000: 442b 56be 59dd 0a3e b2f8 6fbd cd96 153e
00000010: c719 5cbe 172c 15be 2600 00be 78dd b43d
00000020: 40f9 29be 8212 00bd 867b 853e 6746 9a3d
00000030: 6689 143e 3638 fdbe 5b2b 9dbe c314 1c3e
00000040: a462 2c3e e4f9 473d 58a7 133d 0b26 3fbe
00000050: fa0b a83c 9142 823e 0574 c93d b4f0 223e
00000060: 708c 3e3e e8e0 87bd f37b 123e e65e afbe
00000070: eaf7 b4bd ca27 7abe 61e5 303e d055 b4be
00000080: 897e 01be 8a78 13be bd42 45be 5972 793b
00000090: 1bda 02bd 54e3 fabc 1bcf ff3c f06e a53e
000000a0: c7ce c8bc 86c8 8d3e a891 09be 29b2 0f3d
000000b0: 62fe 2a3b 2dcc df3d 4001 113d 021c 9e3d
000000c0: da37 6d3d f057 12bb 934d 8c3d 95b4 363e
000000d0: 82ed 313d ce74 773e 5a8a 133e ce05 bcbd
000000e0: cdbb d6bd 07e5 c93d 9891 293d ca02 33be
000000f0: c130 6fbe 8b3d 96be 69ae bb3d 32d3 1ebd

lstm_bn.running_var f4 [64]
0.009616752 0.022092544 0.0020630285 0.009126054 0.034111436 0.02414338 0.00922997 0.0019651758
0.009005754 0.0066073188 0.022366833 0.023823276 0.00937806 0.01389816 0.0095455125 0.011650487
0.009988419 0.007722704 0.005226094 0.011363098 0.004675627 0.0039671515 0.0010533414 0.007863384
0.006892338 0.025132122 0.0051021837 0.009677511 0.0088791745 0.006169523 0.0072352937 0.0054859817
0.020932365 0.0067661875 0.015519186 0.009300732 0.0053552096 0.0013362323 0.014833717 0.039552826
0.006261685 0.022337236 0.015236145 0.05633616 0.0044514025 0.0022185354 0.008377906 0.008812454
0.009287425 0.05570863 0.020877898 0.0252511 0.00066440465 0.0056556417 0.0072796782 0.07183269
0.003336856 0.0036105756 0.007450141 0.018061599 0.017365359 0.053009145 0.010891729 0.101761356
00000000: 958f 1d3c 6cfb b43c e033 073b 7285 153c
00000010: 6fb8 0b3d 56c8 c53c 4d39 173c 2eca 003b
00000020: df8c 133c 3582 d83b a63a b73c 0829 c33c
00000030: 6fa6 193c 1cb5 633c c864 1c3c afe1 3e3c
00000040: 77a6 233c bd0e fd3b a73f ab3b 4a2c 3a3c
00000050: 0136 993b e1fe 813b 4610 8a3a 6cd5 003c
00000060: 1fd9 e13b e1e1 cd3c 3830 a73b 6c8e 1e3c
00000070: f579 113c b629 ca3b 0b16 ed3b c0c3 b33b
00000080: 5a7a ab3c e5b6 dd3b 2f44 7e3c 1962 183c
00000090: c17a af3b 8424 af3a 1e09 733c 2502 223d
000000a0: d22e cd3b 94fc b63c 06a1 793c bfc0 663d
000000b0: 12dd 913b d964 113b 7c43 093c 1c62 103c
000000c0: 492a 183c bb2e 643d 2008 ab3c 65db ce3c
000000d0: 712b 2e3a f652 b93b 5e8a ee3b 041d 933d
000000e0: 27af 5a3b 689f 6c3b 5020 f43b ebf5 933c
000000f0: cc41 8e3c 1e20 593d 3973 323c 4268 d03d

fc1.weight f4 [32, 64]
-0.026292045 0.08172513 -0.0523044 0.14232256 0.045472186 0.05420004 0.065237716 -0.026641352
-0.01188299 -0.052094758 0.07813799 0.10584016 -0.0071520885 -0.12777454 -0.014673087 -0.06882186
0.006248725 0.077062614 0.029827273 0.10831991 0.13967705 0.011900094 -0.030029193 0.06703466
-0.13251442 0.049215127 0.08181662 0.14037563 0.01545055 0.06081458 -0.004235388 -0.054508127
0.052953865 -0.083441816 -0.14385745 0.03242886 -0.024705416 -0.0786871 -0.10556727 0.05533742
-0.099280804 0.042007364 -0.11407336 0.12450379 0.06719923 -0.1356529 0.060742043 0.14798066
-0.09484916 -0.037873935 0.09538323 -0.025739264 -0.0068573034 -0.11370025 -0.007588563 -0.13766679
0.027072135 0.027211927 0.016992444 0.010592021 0.12809575 -0.030594708 0.12829916 0.14297485
0.09323432 -0.09355923 0.06671322 0.011901352 -0.03539348 -0.06339065 -0.11521802 0.015975866
-0.054461136 0.105348766 0.005723946 -0.05797527 0.027288092 0.03885551 0.078637786 -0.049904045
0.08412609 -0.13345593 -0.063732855 0.010218247 0.07993421 0.011353264 -0.084126204 -0.12786879
-0.03140288 -0.08093871 0.013352216 0.01935689 -0.11211661 -0.044843063 0.063421264 0.048588574
0.1370311 0.08174744 -0.011757139 0.10653868 0.07009237 0.08709279 0.11528969 0.15300529
-0.102803834 0.0017461902 -0.03250559 0.033679128 -0.021716842 0.10233043 0.027863586 0.12753737
-0.14468081 -0.03943057 0.12836467 0.104616985 0.048872434 0.07090094 0.07055146 0.043839
0.0035791292 -0.061578993 0.036899358 -0.017843472 -0.07979208 -0.07266492 -0.021310622 0.13875331
0.033019803 0.12592481 0.048842154 0.1627492 0.06323868 0.055357944 -0.08705322 -0.062565774
-0.03457739 0.0874877 0.13046807 -0.022125533 0.09359434 0.005855984 -0.11858366 0.008571876
-0.00010921068 0.019850848 -0.03967562 0.10208063 0.13179232 -0.0747634 0.042337976 -0.06808842
-0.15615672 0.060841694 0.009779731 -0.10902691 -0.106524296 -0.035446923 -0.11598216 -0.027186729
0.12312075 0.01720089 -0.18558851 0.01165256 -0.056881703 0.004460351 -0.043708816 0.050748106
-0.047069035 -0.0049793683 -0.12278804 0.1667564 -0.040482692 0.0127122775 0.0004627715 -0.004275873
0.060134552 -0.0724109 0.009234088 0.054033004 -0.10949958 0.04232056 0.009415665 -0.06383335
-0.0917489 -0.07772862 0.08755408 0.03197055 0.085501574 -0.02717447 0.037603877 0.14992978
-0.12237876 0.05258422 -0.04750437 -0.039450265 -0.054717004 0.0689077 -0.09373046 0.068073645
-0.080905154 -0.12539765 -0.06387477 0.06346487 0.08961272 -0.069902584 -0.123171665 -0.061482005
0.06256558 -0.13019872 -0.056017768 0.10730277 -0.069322295 -0.04213787 0.018821938 -0.068532184
0.07163867 -0.06407517 0.077827 0.032323156 0.098792866 0.06444329 0.03116411 -0.09742008
0.05196905 0.07999199 0.051289026 -0.032421894 -0.119456165 -0.10878271 0.070970066 0.1261964
-0.011994868 0.08265732 -0.06540763 -0.012813701 -0.011227702 -0.10702562 -0.093183994 -0.08166021
-0.05723937 0.04110611 0.07452688 0.07417678 0.0029273937 0.070970744 -0.05628616 0.09108071
0.07658299 0.09269527 0.008462815 -0.008579411 -0.10909207 0.07938952 0.1025159 0.029080607
00000000: 6a62 d7bc 815f a73d 233d 56bd 01bd 113e
00000010: 0b41 3a3d dc00 5e3d 5a9b 853d f73e dabc
00000020: dfb0 42bc 5061 55bd cf06 a03d bac2 d83d
00000030: 115c eabb 54d7 02be 6367 70bc 7af2 8cbd
00000040: 1bc2 cc3b 01d3 9d3d 5358 f43c d4d6 dd3d
00000050: 8007 0f3e 9df8 423c c8ff f5bc 7849 893d
00000060: dcb1 07be cd95 493d 798f a73d a1be 0f3e
00000070: 4e24 7d3c b618 793d 02c9 8abb ea43 5fbd
00000080: 27e6 583d 8be3 aabd 5e4f 13be 20d4 043d
00000090: 0363 cabc b426 a1bd a733 d8bd 7ea9 623d
000000a0: bc53 cbbd ea0f 2c3d 4b9f e9bd d8fb fe3d
000000b0: c09f 893d 98e8 0abe a6cc 783d 3e88 173e
000000c0: 4740 c2bd b321 1bbd 4858 c33d 26db d2bc
000000d0: 3bb3 e0bb addb e8bd 7ba9 f8bb 86f8 0cbe
000000e0: 62c6 dd3c 8ceb de3c bd33 8b3c 288a 2d3c
000000f0: 882b 033e c1a1 fabc db60 033e 0068 123e
00000100: a3f1 be3d fb9b bfbd f1a0 883d e3fd 423c
00000110: c1f8 10bd f5d2 81bd 6df7 ebbd d2df 823c
00000120: a412 5fbd 18c1 d73d f08f bb3b 7a77 6dbd
00000130: 478b df3c f526 1f3d d90c a13d 2f68 4cbd
00000140: 4d4a ac3d aca8 08be 5f86 82bd 6f6a 273c
00000150: 8cb4 a33d 0a03 3a3c 5c4a acbd 09f0 02be
00000160: 4ea0 00bd 32c3 a5bd 41c3 5a3c 5792 9e3c
00000170: 659d e5bd 5cad 37bd 02e3 813d d004 473d
00000180: e151 0c3e 346b a73d 04a1 40bc f430 da3d
00000190: 978c 8f3d b45d b23d 001d ec3d 6bad 1c3e
000001a0: d18a d2bd 6ce0 e43a 9524 05bd 20f3 093d
000001b0: 85e7 b1bc 9e92 d13d 2d42 e43c 2899 023e
000001c0: 3527 14be f381 21bd 0772 033e 6e41 d63d
000001d0: 762e 483d 8334 913d 497d 903d 8690 333d
000001e0: d38f 6a3b 413a 7cbd c823 173d 792c 92bc
000001f0: 086a a3bd 58d1 94bd 9d93 aebc 5915 0e3e
00000200: c63f 073d 6ff2 003e b60e 483d baa7 263e
00000210: 4883 813d 03bf 623d f548 b2bd 7c22 80bd
00000220: 05a1 0dbd c02c b33d 6c99 053e 9b40 b5bc
00000230: 64ae bf3d 8ee3 bf3b fddb f2bd 0e71 0c3c
00000240: 0a08 e5b8 3f9e a23c e782 22bd a60f d13d
00000250: 91f4 063e 8e1d 99bd 966a 2d3d f171 8bbd
00000260: 8ce7 1fbe 2435 793d 2a3b 203c 8049 dfbd
00000270: 6929 dabd cb30 11bd 0e88 edbd b4b6 debc
00000280: bb26 fc3d e2e8 8c3c ea0a 3ebe 61ea 3e3c
00000290: cafc 68bd 2328 923b 0408 33bd 3fdd 4f3d
000002a0: 76cb 40bd f829 a3bb 4c78 fbbd 31c2 2a3e
000002b0: 2ed1 25bd 2847 503c 24a0 f239 9f1c 8cbb
000002c0: a64f 763d 2a4c 94bd 924a 173c b651 5d3d
000002d0: 5141 e0bd 5358 2d3d 2944 1a3c 0fbb 82bd
000002e0: d9e6 bbbd 2f30 9fbd 8e4f b33d 8df3 023d
000002f0: 731b af3d fe9c debc 8606 1a3d 3187 193e
00000300: b7a1 fabd 8d62 573d f193 42bd 9a96 21bd
00000310: f01e 60bd 7b1f 8d3d c1f5 bfbd 326a 8b3d
00000320: 9ab1 a5bd 3e68 00be c7d0 82bd dff9 813d
00000330: e086 b73d 1629 8fbd 6d41 fcbd 8ed4 7bbd
00000340: 6222 803d d052 05be e372 65bd 8ec1 db3d
00000350: d9f8 8dbd c298 2cbd 7730 9a3c 9a5a 8cbd
00000360: 4cb7 923d d839 83bd c363 9f3d 4965 043d
00000370: ea53 ca3d d8fa 833d e04b ff3c 2e84 c7bd
00000380: 80dd 543d d7d2 a33d 7114 523d d2cc 04bd
00000390: 6fa5 f4bd 78c9 debd c158 913d a139 013e
000003a0: 1f86 44bc 3e48 a93d 6ff4 85bd 8ff0 51bc
000003b0: 65f4 37bc 4030 dbbd 40d7 bebd 783d a7bd
000003c0: d473 6abd e15e 283d 8da1 983d ffe9 973d
000003d0: 84d9 3f3b 1c59 913d 518c 66bd 8688 ba3d
000003e0: 8bd7 9c3d 05d7 bd3d 9ea7 0a3c a890 0cbc
000003f0: aa6b dfbd f996 a23d dbf3 d13d 743a ee3c

fc1.bias f4 [32]
0.015255432 0.0050371513 -0.0908111 0.02179917 0.07541562 0.002360946 -0.063434236 0.02354762
0.0028591184 -0.0138939945 0.08302081 -0.09936702 0.030107912 -0.000927145 -0.13522308 -0.0116787
-0.1147524 0.005034322 0.11853349 -0.08448713 -0.0853537 -0.054641217 -0.09795858 -0.018225707
0.091435924 0.06833195 -0.006413697 -0.09173077 -0.1571397 0.04101022 0.033855725 -0.14108689
00000000: ebf1 793c b00e a53b 2cfb b9bd 2c94 b23c
00000010: 8173 9a3d 1aba 1a3b cfe9 81bd f0e6 c03c
00000020: 0c60 3b3b a3a3 63bc d006 aa3d f080 cbbd
00000030: dea4 f63c a60b 73ba eb77 0abe 0558 3fbc
00000040: 4e03 ebbd f4f6 a43b b0c1 f23d 9707 adbd
00000050: eccd aebd 78cf 5fbd 829e c8bd 144e 95bc
00000060: c242 bb3d 9ff1 8b3d fd29 d2bb 58dd bbbd
00000070: 3be9 20be 55fa 273d 4dac 0a3d 1579 10be

fc_bn.weight f4 [32]
1.0524398 0.9898045 0.9668274 0.94144034 0.9251774 1.0024287 0.9522837 0.949889
0.9877177 0.9748 0.97808135 0.9975525 0.9911566 1.0152804 1.0061096 0.98959935
1.0224195 0.9942983 0.95777535 0.9988733 0.97814995 0.96373516 1.0023112 0.9785149
1.0472695 0.9987095 0.98078877 0.9963865 1.000328 1.0119392 0.9917606 1.0288751
00000000: 59b6 863f d463 7d3f 0082 773f 3c02 713f
00000010: 6dd8 6c3f 954f 803f ddc8 733f ed2b 733f
00000020: 11db 7c3f 7e8c 793f 8a63 7a3f 9a5f 7f3f
00000030: 70bc 7d3f b5f4 813f 33c8 803f 6256 7d3f
00000040: a4de 823f 558a 7e3f c430 753f 29b6 7f3f
00000050: 0968 7a3f 59b7 763f bc4b 803f f47f 7a3f
00000060: ed0c 863f 6dab 7f3f f914 7b3f 3013 7f3f
00000070: bf0a 803f 3987 813f 06e4 7d3f 2eb2 833f

fc_bn.bias f4 [32]
0.0867525 0.13341461 0.103609085 0.064029336 0.06543412 -0.10173861 0.07538684 0.13364604
0.11341486 0.077153265 0.07060681 0.10200478 0.097712465 -0.03697679 -0.10699744 -0.056903433
0.09967495 -0.0444528 0.029011736 -0.05337439 0.07636269 0.12703036 -0.09968981 0.08746041
0.060641527 -0.05664863 0.07530622 -0.016035276 -0.07273513 -0.079653606 0.081877686 -0.07756442
00000000: 4bab b13d d79d 083e 0031 d43d d021 833d
00000010: 5302 863d 555c d0bd 6a64 9a3d 82da 083e
00000020: 0d46 e83d 8802 9e3d 4e9a 903d e2e7 d03d
00000030: 791d c83d f974 17bd 7921 dbbd 9313 69bd
00000040: 6122 cc3d 2414 36bd 05aa ed3c 1b9f 5abd
00000050: 0b64 9c3d 3f14 023e 2c2a ccbd 721e b33d
00000060: 4063 783d 6508 68bd 263a 9a3d 695c 83bc
00000070: 28f6 94bd 6e21 a3bd 7daf a73d 18da 9ebd

fc_bn.running_mean f4 [32]
0.6209029 0.44072697 0.49740908 0.34693938 0.4904222 0.53616977 0.3584174 0.5221321
0.5626252 0.48717982 0.478536 0.35483506 0.40919724 0.45653197 0.4240916 0.2788332
0.25581676 0.47742555 0.37778097 0.36262375 0.579448 0.4748103 0.44476026 0.6540258
0.6075965 0.34217998 0.5606934 0.45627484 0.45673794 0.5041465 0.5758467 0.21323645
00000000: 7ef3 1e3f f7a6 e13e 67ac fe3e 0aa2 b13e
00000010: 9e18 fb3e 6c42 093f 7c82 b73e 73aa 053f
00000020: 3508 103f a26f f93e ac02 f53e f1ac b53e
00000030: 4d82 d13e 8fbe e93e 8922 d93e 3ac3 8e3e
00000040: 6afa 823e 1f71 f43e 826c c13e d2a9 b93e
00000050: b456 143f 561a f33e 9eb7 e33e 3c6e 273f
00000060: 728b 1b3f 3732 af3e 9a89 0f3f db9c e93e
00000070: 8ed9 e93e bf0f 013f b06a 133f a85a 5a3e

fc_bn.running_var f4 [32]
0.9192886 0.4550073 0.7384195 0.18359557 0.4980474 0.8527712 0.37602746 0.7970993
0.5141498 0.34205252 0.41282815 0.40841413 0.4975926 0.7255284 0.43898496 0.28897628
0.23773977 0.69965994 0.34835535 0.556398 1.034151 0.5397043 0.81631696 0.7375487
1.0960101 0.45367572 0.72081906 0.8998784 0.86571914 0.7590412 0.5139075 0.28719816
00000000: 7f56 6b3f b8f6 e83e 0f09 3d3f 7a00 3c3e
00000010: 1200 ff3e 374f 5a3f ac86 c03e b30e 4c3f
00000020: 529f 033f 8221 af3e 365e d33e a81b d13e
00000030: 75c4 fe3e 3bbc 393f a3c2 e03e b3f4 933e
00000040: 0e72 733e ea1c 333f a25b b23e 1970 0e3f
00000050: 0f5f 843f 102a 0a3f 26fa 503f fecf 3c3f
00000060: 0f4a 8c3f 2f48 e83e 9987 383f 6e5e 663f
00000070: c59f 5d3f 8650 423f 718f 033f a30b 933e

fc2.weight f4 [2, 32]
0.00452921 -0.062326133 -0.061055355 0.05631359 0.00791213 0.111992516 0.06646951 -0.13531515
-0.055872306 -0.029418299 -0.1351708 -0.13268122 -0.16300714 0.0049184053 -0.099157 -0.0503402
0.02347054 0.06713099 -0.091456786 0.04689766 -0.05113401 -0.068980664 -0.028106961 -0.040073995
0.10346142 0.05949536 -0.12310978 0.13565719 0.099648565 -0.06108773 -0.06468381 0.2088986
0.12419913 0.03199847 -0.014670196 0.10121612 0.031743824 -0.06706678 0.0991701 0.10558881
0.00035603417 0.09655568 -0.020116916 0.090155944 -0.028021192 -0.09490906 -0.17604 -0.15245886
0.14913535 -0.051356282 -0.0900455 -0.14789636 0.02078802 0.09922318 -0.08858302 0.15630098
0.20670477 -0.005119356 -0.0564278 -0.0807294 -0.002555253 -0.14064355 -0.0046442035 0.07721971
00000000: c469 943b b049 7fbd 2e15 7abd 14a9 663d
00000010: e1a1 013c 555c e53d 2b21 883d 0e90 0abe
00000020: 5cda 64bd a5fe f0bc 376a 0abe 96dd 07be
00000030: 58eb 26be 932a a13b d312 cbbd 8731 4ebd
00000040: 4a45 c03c f97b 893d b24d bbbd c317 403d
00000050: e571 51bd bc45 8dbd 9240 e6bc a124 24bd
00000060: 95e3 d33d 68b1 733d fb20 fcbd b8e9 0a3e
00000070: 8c14 cc3d 2137 7abd f278 84bd 84e9 553e
00000080: 1d5c fe3d d410 033d 435b 70bc 664a cf3d
00000090: d005 023d 4f5a 89bd b219 cb3d f23e d83d
000000a0: 19aa ba39 fcbe c53d 3bcc a4bc aea3 b83d
000000b0: b38c e5bc ae5f c2bd d443 34be 2d1e 1cbe
000000c0: f0b6 183e f75a 52bd c669 b8bd 2572 17be
000000d0: a34b aa3c 8635 cb3d 046b b5bd 5d0d 203e
000000e0: 6aaa 533e 45c0 a7bb d620 67bd 7555 a5bd
000000f0: 0876 27bb dd04 10be 672e 98bb 5e25 9e3d

fc2.bias f4 [2]
-0.110397644 0.22361529
00000000: 2918 e2bd 68fb 643e
