foolball_predict_model/lstm_pytorch.pth (torch, 73660 bytes, 10 tensors)

lstm.weight_ih_l0 f4 [256, 1]
000000 b8 34 e1 bd 8d 14 d8 bd 93 44 06 3e 5c e8 2f 3d
       -0.109963834 -0.10550795 0.13112096 0.042946205
000010 51 96 f3 3c ef b8 78 bd b3 d3 db 3d 0d 16 be bd
       0.029734762 -0.06072324 0.10733738 -0.092815496
000020 a9 ce 5d bd 9c ed 00 3d 74 e9 bc 3c 30 a3 34 bd
       -0.054152165 0.031476602 0.023060538 -0.04410094
000030 69 68 b6 3d 23 3e 0f 3d d7 1d b3 3d 3f d2 95 3c
       0.089066334 0.034971368 0.08745926 0.01828873
000040 47 53 2c bd 5a 72 6c be c4 ea ed 3d 45 a2 03 bd
       -0.042071607 -0.23090497 0.116170436 -0.032137174
000050 46 9f 03 3e 37 84 1a 3e 0f 82 0b 3b a9 69 f3 3d
       0.12853727 0.15089498 0.0021287238 0.118853875
000060 a0 45 be 3c c7 7d 1e bc a5 a0 dc bc 69 e9 17 3e
       0.02322656 -0.009673542 -0.02693207 0.14835133
000070 f2 41 1f 3e 8e af b9 3d 67 e6 1b bd c0 58 d3 3c
       0.155525 0.090666875 -0.038061526 0.025799155
000080 8a df 45 3d d5 51 00 be 6e 10 5c 3e 91 2f a5 3d
       0.048308887 -0.12531216 0.21490642 0.08065713
000090 fc d2 bc bc 76 ef da 3d 3f b6 58 3d ad 5b c7 3b
       -0.023049824 0.10690205 0.05290818 0.0060839267
0000a0 99 84 ac bd f8 1e be 3d b3 38 83 3d b2 ad a1 bd
       -0.084237285 0.092832506 0.06407299 -0.07894458
0000b0 e6 53 67 bd ae 63 80 3c da 00 80 bd 44 2b bf bc
       -0.056476496 0.015672531 -0.062501624 -0.02333606
0000c0 b9 5b 6f 3e c0 5a 1d be a7 5f 9d 3c 5f eb 81 bd
       0.23374833 -0.1536665 0.01921065 -0.063437216
0000d0 ff 6b 31 be 7c 81 75 bc e8 cd 15 bb 17 b7 dc bd
       -0.17326353 -0.014984485 -0.0022858325 -0.10777109
0000e0 41 7b 9e bd ba 84 ab bd 59 84 0d 3d 75 2c 60 3d
       -0.077383526 -0.08374925 0.034550045 0.054729898
0000f0 33 35 80 3d 20 25 e5 3d 5e a9 91 3c 1d e9 c5 3d
       0.06260147 0.11188722 0.017780956 0.096636035
000100 7a e6 bd 3c 48 7c 4a bd 56 87 1d be fd 97 d7 3b
       0.023181189 -0.04943493 -0.15383658 0.0065793977
000110 47 30 92 bd f3 ae af 3d b6 8b 40 3d c1 ed 06 3e
       -0.071381144 0.08578291 0.04700824 0.13176633
000120 b8 fe 86 bd dd 19 46 bd 2c b8 e3 3d a2 0c 36 3b
       -0.065915525 -0.04836451 0.11119112 0.0027778526
000130 52 95 3a bd 80 78 df bd ad 2b e8 bc 16 07 fa bc
       -0.04555256 -0.109116554 -0.028341139 -0.030520957
000140 55 ec c7 3d 00 3e 94 bd 33 c1 f2 bc 60 05 e5 bd
       0.09761874 -0.07238388 -0.02963314 -0.11182666
000150 27 67 5b be 74 0d b1 3d cb 7f 93 bd 61 c5 e0 bd
       -0.21426068 0.08645144 -0.07202109 -0.10975147
000160 49 a6 30 3e a9 a8 b5 bd 31 ab 49 3d 4c 23 d8 3d
       0.17250933 -0.0887006 0.049235526 0.10553607
000170 37 fe 0e bd 6c be 1b 3d d6 aa 4f 3d e8 b6 60 b9
       -0.034910407 0.038023397 0.05070003 -0.00021430443
000180 da 3b b6 3a 98 b8 a3 3c e5 ab 14 be 13 7f 10 be
       0.0013903335 0.019985482 -0.14518698 -0.14110975
000190 29 7e 69 3c e7 c9 6f bd 71 c5 41 bd 9e 23 ba 3c
       0.01425127 -0.05854216 -0.047307435 0.022722062
0001a0 4c 55 ee 3d 3b c6 a7 3c e7 51 a7 3d e4 3c 85 bd
       0.11637363 0.020480266 0.081699185 -0.065057546
0001b0 51 86 2f bd d3 26 2e bc 60 b2 ae bd d3 bd 16 bd
       -0.042852703 -0.010629374 -0.08530116 -0.036802124
0001c0 6a 9d da bd ff 66 92 3d 99 72 ba 3d 61 e8 a7 bd
       -0.106745556 0.07148551 0.09103889 -0.0819862
0001d0 35 1b eb 3c 51 62 cf 3d 0a 9e 46 bd e2 16 91 bc
       0.028699497 0.10126174 -0.04849056 -0.017711107
0001e0 4d 03 80 bd 56 4d 36 bd 90 df a0 bd f6 92 ab bc
       -0.062506296 -0.044507347 -0.07855141 -0.0209441
0001f0 ff 39 7b 3d a5 84 ef 3d f9 cd fc 3d 22 46 52 be
       0.061334606 0.11695222 0.12343974 -0.20534566
000200 cf 37 7e 3c a0 3c 1f bd 5d aa 9c bd a0 d5 88 3d
       0.0155162355 -0.038876176 -0.07649682 0.06681371
000210 c7 b4 84 bd 7f ad fb bd fc 5d a1 3d 94 33 98 3d
       -0.06479793 -0.12288951 0.07879254 0.07431713
000220 0f 3a 32 3d 31 31 b6 bd 17 43 d4 3d d4 6e b7 bd
       0.0435124 -0.08896101 0.10364359 -0.08956686
000230 fc 2f ba bd 1b 58 c9 3b a6 21 8f bd a4 e7 dc bd
       -0.090911835 0.006144536 -0.0698884 -0.107863694
000240 f1 6c e5 bb e1 ea 41 be 50 c8 4a 3d 65 19 3a 3e
       -0.007001512 -0.18937255 0.04950744 0.1817375
000250 10 70 59 3e f0 dd 05 bd 35 08 18 3d 9b e7 6e 3e
       0.21234155 -0.03268236 0.0371172 0.23330538
000260 35 ad 13 be 7f 43 f1 3d da c7 27 3d f6 49 9a bd
       -0.14421542 0.11780452 0.040962078 -0.07533638
000270 0f 41 30 3e 39 dc c4 bc 32 91 f1 3c dc 84 10 bd
       0.17212318 -0.024030792 0.02948818 -0.035282955
000280 60 85 d5 3d ca ac 68 bb 97 27 b6 3d 05 7e c7 3d
       0.1042583 -0.003550338 0.0889427 0.09740833
000290 73 1b 9d bd 22 d3 4f bd 1e cc 34 3d d8 0c 6a 3c
       -0.07671251 -0.05073846 0.044139974 0.014285289
0002a0 6b 45 3b 3d 99 d4 fc bb 87 fd c6 3c 86 10 3c 3d
       0.0457205 -0.0077157733 0.024290813 0.045914195
0002b0 d4 72 6d bd 5a 77 09 bc a3 34 ab 3d 4a 84 b5 3b
       -0.057970837 -0.008390272 0.08359649 0.0055394517
0002c0 6b 0c 67 3e d8 fc 9f 3d 26 32 72 3c 5a a0 b1 bd
       0.22563331 0.07811898 0.014782464 -0.08673163
0002d0 3e 99 f5 bd a2 9a 2b 3d 05 d8 89 bc 49 e6 a1 bd
       -0.11992119 0.041895516 -0.016826639 -0.079052515
0002e0 55 e2 00 be e4 6b 0f be 80 68 46 bc 19 4a c0 bb
       -0.12586339 -0.14006001 -0.012109876 -0.005868208
0002f0 b7 4c 03 3c ed e1 a6 3c bf c7 1d 3d ce b2 1a 3e
       0.008013896 0.020371402 0.03852057 0.15107271
000300 f8 fb 5d 3b ad 24 d6 3d 99 43 da 3c 8d 18 16 3e
       0.003387211 0.10456214 0.026643561 0.14657803
000310 0f d7 68 bd be cd 1c bc 3b 5d 33 bd 20 c2 c0 3d
       -0.05684572 -0.009570537 -0.043790083 0.094120264
000320 b2 5e bb bd eb bb 54 bc d7 45 05 bd 2e 2f cc bc
       -0.09148921 -0.012984256 -0.032537308 -0.02492484
000330 11 a3 9f 3d 6a 0e a6 3c da de 31 bd 32 43 1f 3e
       0.07794774 0.020270545 -0.04342542 0.15552977
000340 88 36 95 3d 3a 0b 77 bd 1d 66 56 3d 20 6d 7d bd
       0.07285792 -0.06031344 0.052343477 -0.061871648
000350 42 07 3d be d2 62 59 3d 71 7b b0 bc 83 14 6c bd
       -0.184598 0.053072758 -0.021543236 -0.05763675
000360 0b d5 64 3e 55 2a e1 3c 26 74 cb 3d cf 93 23 bd
       0.22346894 0.027486006 0.09934263 -0.039935883
000370 11 9c 7f 3c b2 a5 b0 bd fe b4 af bd ce ea 89 3d
       0.015601174 -0.08625354 -0.085794434 0.067342386
000380 1b 41 05 bc 7d 0d 2f bd 52 f1 a4 3d 50 24 82 3d
       -0.008133198 -0.042737473 0.08053841 0.06354582
000390 dd af c7 3d 6b 53 14 3e 80 38 2f bd 16 01 0c 3e
       0.0975034 0.14484946 -0.042778492 0.13672289
0003a0 7c a5 22 3e 66 60 77 3e c7 b1 1e bd ac dc c3 bc
       0.1588344 0.24157867 -0.03874376 -0.023908935
0003b0 95 21 26 bd a9 5f 3f 3d 9e 77 b3 3b 47 f9 9d 3d
       -0.04055937 0.046722088 0.005476906 0.077135615
0003c0 a4 a2 fa bc fc 55 c3 bd f5 e9 e1 3d f5 68 21 bd
       -0.030595131 -0.095378846 0.11030952 -0.039406735
0003d0 68 e4 50 bd 4f 13 48 3d 39 e8 00 be 53 6d 7d 3d
       -0.050999075 0.04884654 -0.12588586 0.061871838
0003e0 40 91 66 bd e6 d3 3b bb 19 a4 8c 3d 60 19 e2 3d
       -0.056290865 -0.0028660237 0.06867237 0.11039996
0003f0 3c 2b d1 3d 30 18 39 3c e7 67 96 bd 28 2f d3 bd
       0.102133244 0.011297271 -0.073440365 -0.10311729

lstm.weight_hh_l0 f4 [256, 64]
000000 15 b6 52 bd f5 d3 a4 bd fb 54 16 bd 93 9a 00 bd
       -0.05144318 -0.0804824 -0.036702137 -0.031397413
000010 22 66 4a 3d e3 c4 74 3d 68 77 5b bd d8 47 09 bd
       0.049413808 0.05975808 -0.05358067 -0.03351578
000020 fc 66 d4 3d 25 af f6 bc 6c f4 02 3e 2c d2 38 be
       0.10371205 -0.030112812 0.12788552 -0.18048924
000030 63 f1 ad bd bb 55 ef 3c bc ee fd 3c 86 19 8d 3d
       -0.084933065 0.029215684 0.030997626 0.06889634
000040 71 2a 1f 3e ad 07 16 be 23 1c 03 3e f8 fa b2 3d
       0.15543534 -0.14651366 0.12803702 0.08739275
000050 b0 e8 21 3e c7 4f 0e 3e 6c f8 a5 3c ac 6f db 3d
       0.1581142 0.1389762 0.020260058 0.10714659
000060 d2 9e 78 bd ca 25 9e bc f1 7c e1 3d 58 77 76 3d
       -0.060698338 -0.019305129 0.11010159 0.06017241
000070 ef 68 fa 3d 97 40 66 3d 3b c7 fd 3d 91 f1 9b bd
       0.12227046 0.05621394 0.12391516 -0.076144345
000080 12 06 f2 bc 06 dd 3b bc 82 ac 3d 3c a8 88 38 3e
       -0.02954391 -0.01146627 0.011576774 0.1802088
000090 2a b1 73 bd 0a 9e 1f bb 9b c1 16 3d 4d 0a 1b bd
       -0.05949513 -0.0024355673 0.03680573 -0.03785162
0000a0 3d ea 45 be 71 c6 f9 3d 4d 74 0b bd 86 83 8a 3d
       -0.19327636 0.12196053 -0.03404646 0.06763367
0000b0 bf 6c 19 be 3a d9 bc 3c ab 69 00 3e 56 92 ef 3c
       -0.1498289 0.0230528 0.12540309 0.029244583
0000c0 13 02 8f 3d ec d6 a5 3c d8 d8 3d 3d 0d 22 34 bd
       0.069828175 0.020244084 0.046349376 -0.043977786
0000d0 26 c5 f1 bd 8b ab f4 b9 ac 11 07 be a1 50 1e be
       -0.11805181 -0.00046667116 -0.13190335 -0.15460445
0000e0 f8 5b 09 3d 55 ca a3 bd a6 9b 97 bd a7 a7 fa bd
       0.033534974 -0.07997576 -0.074027345 -0.122390084
0000f0 a7 57 e1 3d 5f dc b8 3c 2b 6e 15 3e db ae 3a 38
       0.110030465 0.022566019 0.14592807 4.4508703e-05
000100 11 9e 65 3d d8 6c bd 3d 30 a6 11 3b 14 dd 47 bd
       0.056058947 0.09249276 0.00222243 -0.04879482
000110 44 a8 b9 bc ed fa 11 3e b9 0b 6a bd f4 de 94 3d
       -0.022663243 0.14255877 -0.057140086 0.072690874
000120 8f 86 4d 3d 61 0f f0 3c 24 f0 b2 3d c0 ba d0 3c
       0.050177153 0.029304208 0.087372094 0.025479674
000130 aa 25 4a 3d d5 b4 98 3b 15 35 ca bd 31 21 8d bd
       0.049352325 0.0046602287 -0.09873406 -0.068910964
000140 3b c6 77 bd e3 6c 67 bd fe 51 dc 3b 5d ab 79 bd
       -0.06049178 -0.056500327 0.0067236414 -0.06095444
000150 5f c0 aa bd bf 30 d5 3c 45 55 76 bd dc 7f 88 bd
       -0.08337473 0.02602422 -0.060139913 -0.06665012
000160 89 ca e7 3c 51 53 15 bd 34 7c dc 3c 33 a6 23 bd
       0.028294818 -0.03645641 0.026914693 -0.03995342
000170 7f 88 94 3c 40 77 cd bd fe 0d 1b bc 93 66 bf bc
       0.018131493 -0.10032511 -0.009463785 -0.02336434
000180 60 27 a0 3c 7d ae 07 be fd f9 83 bc ec 40 19 3d
       0.019550025 -0.13250156 -0.016110415 0.03741543
000190 ab 22 d7 bd 4b 33 80 bc be 81 cb bd 3f 3f ab bd
       -0.10504659 -0.015649458 -0.09936856 -0.083616726
0001a0 eb ee ab 3b a5 e8 19 be 85 01 51 be ed 64 aa 3d
       0.005246987 -0.15030153 -0.20410736 0.08320031
0001b0 54 ac e8 bd 01 09 fc 3d 4d 2e c3 3d 4a fd c2 bd
       -0.11360994 0.12306405 0.095303155 -0.09520967
0001c0 8f 6c 72 bd cc db ed 3c 44 a0 0c be aa c8 13 be
       -0.05918556 0.029035471 -0.13733011 -0.14432016
0001d0 04 3e 30 3d 41 e5 e0 3d 49 3b a7 bd 87 84 ca 3d
       0.043027893 0.10981227 -0.081656046 0.09888559
0001e0 1a 04 03 be 32 50 b7 bc e7 87 f5 3d 59 cd 8c bd
       -0.12794533 -0.022377107 0.11988812 -0.068751045
0001f0 7e 23 08 3e 94 75 e6 bb bf 67 35 3d f3 8b a8 bd
       0.13294789 -0.0070330594 0.044288393 -0.08229818
000200 0c 0c 93 bc a8 f3 27 3e d4 cf 08 bd a7 a7 c4 3c
       -0.01795008 0.16401541 -0.033401325 0.024005724
000210 a0 21 94 bd 18 9e bb bd 6e 64 90 bd a1 14 6f bd
       -0.07232976 -0.09161013 -0.070504054 -0.058369283
000220 1a 06 6f bd 68 47 64 bd 4f 2a d8 bd f8 81 0a be
       -0.05835543 -0.05573216 -0.10554945 -0.13526142
000230 a2 db ac bd 62 d2 93 bd ad b1 d1 bd 8d 0b 01 3e
       -0.08440329 -0.07217862 -0.10238967 0.12602063
000240 16 7b e8 3c 69 61 47 3d 65 7c 34 b9 14 7c 00 3e
       0.028379004 0.048676882 -0.00017212478 0.12547332
000250 5f 1c af bd fd de 45 3d f1 12 8b bd 5c 44 21 bd
       -0.08550333 0.04830836 -0.06790722 -0.039371833
000260 75 0c 8e bc bf 17 9d bd 67 6a d9 3d 66 47 fa 3d
       -0.017339924 -0.07670545 0.10615998 0.122206494
000270 a6 e7 13 be 30 5c b3 bd 17 e6 ab bd 5c 7d 1b bd
       -0.14443836 -0.08757818 -0.083934955 -0.03796135
000280 64 36 22 bd d2 3e 5b bd 22 a3 4a bc dc cd b0 3c
       -0.039602652 -0.053526707 -0.012367995 0.021582536
000290 68 2b a1 bc 0a 58 9e 3d 10 20 79 bd 15 d2 ed 3c
       -0.019674018 0.07731636 -0.060821593 0.029030839
0002a0 e6 2c 8c 3d 89 9a e7 bd 2a 1c b3 3d 55 4b 80 bd
       0.06844501 -0.11308772 0.08745606 -0.062643684
0002b0 e2 86 ba 3d e0 8f df bd 4c a6 29 3c 1f 22 82 3d
       0.09107758 -0.10916114 0.01035459 0.06354164
0002c0 a4 0a 09 3d 4c 15 bd bd ab aa ac bc e6 f3 bd 3c
       0.033457413 -0.09232578 -0.021077475 0.023187589
0002d0 f1 7a 7f 3c 77 e8 0a 3e 25 3a 23 3d 48 81 27 3d
       0.015593276 0.13565241 0.039850373 0.040894777
0002e0 ed fc 5b bd ff 67 ff 3d 74 20 50 3d c1 5c b2 3c
       -0.053708006 0.124710076 0.0508122 0.021772744
0002f0 6d dd 65 bd 06 d5 fd bd d0 aa ff bd 60 f9 a2 3d
       -0.05611937 -0.123941466 -0.12483752 0.07957721
000300 4f c2 b7 3d 49 9a e8 bd 2d 45 2c 3d cb 8a 8c 3d
       0.08972608 -0.113575526 0.04205816 0.0686241
000310 94 85 ee 3d 19 ba 11 bd 3a b0 4b bd 64 7e be bd
       0.11646572 -0.035577867 -0.04972861 -0.09301451
000320 8a fd a4 bd 8a 5b b6 3d db 9b 1c be 48 cb 07 3e
       -0.08056171 0.089041784 -0.15293829 0.1326114
000330 09 4a fd bd 5e 9a c2 bd 42 0d b1 3d 5a fd 04 3d
       -0.12367637 -0.095020995 0.08645107 0.032468177
000340 d1 5d c5 bc 6a 45 83 bd 66 f7 cc bd 3f b6 c1 bd
       -0.024092587 -0.06409724 -0.10008125 -0.09458589
000350 32 67 03 3e 03 79 7c 3d 18 b8 18 be a0 ba 9e bd
       0.12832335 0.061638843 -0.14913976 -0.0775044
000360 13 e9 e9 bb 3c df a4 3c e8 7e 1b be 07 04 9b bb
       -0.0071383803 0.020125978 -0.1518513 -0.0047307047
000370 d9 23 0a 3e ac ac 8d bd 95 d3 03 3e 2a 08 65 3d
       0.13490237 -0.069177 0.12873681 0.05591599
000380 67 e9 8b bc f0 e9 95 3c 0b 2b 5d ba e3 ea 59 bd
       -0.017079068 0.018300027 -0.0008436895 -0.05320252
000390 43 4f f2 bc f4 fe 07 bd 75 aa 33 bd 7b f1 d0 bd
       -0.02957881 -0.033202127 -0.043863732 -0.10202309
0003a0 2f 05 15 be a1 5f 20 39 ee 31 e3 3d cc e3 06 be
       -0.14552759 0.00015294414 0.11093508 -0.13172835
0003b0 73 cd 00 bd e4 0b bf bd 99 27 aa bd 93 06 36 3d
       -0.03144593 -0.0932844 -0.08308334 0.044439863
0003c0 6a 46 22 3d 7f c3 61 bb 3f 44 70 bd 3b 75 e3 3d
       0.039617933 -0.00344488 -0.058658835 0.11106344
0003d0 12 15 7d 3c 82 60 1f be af 3c d1 bc 36 9d cc bc
       0.015446918 -0.15564159 -0.025541632 -0.024977308
0003e0 64 69 bb bd d5 26 97 3d 49 52 14 bd 38 90 45 bd
       -0.09150961 0.073804535 -0.036211286 -0.04823324
0003f0 00 4d 04 3e 13 90 8a 3d 9d fd 8d 3d 0a 27 8c bd
       0.12919998 0.06765761 0.069331385 -0.068433836

lstm.bias_ih_l0 f4 [256]
000000 82 eb 15 3e 1a b4 9d 3d 1e 58 02 be 24 37 09 3d
       0.1464062 0.07700367 -0.12728927 0.03349985
000010 d8 1f c7 bc c6 d4 03 3c 3f bf e7 bc ed ee e1 3c
       -0.024307176 0.008046335 -0.028289435 0.027579749
000020 ec 59 46 3d 83 70 ef bd 11 c0 8a 3d a7 1f a4 3d
       0.0484256 -0.11691382 0.06774915 0.0801385
000030 ae 82 7a bd 56 1c bb 3b 22 8d f3 3d 9b 13 00 bd
       -0.061159782 0.005710165 0.11892153 -0.031268697
000040 23 18 b5 bd ba 86 88 3d 59 88 1c 3e c6 59 cd bd
       -0.08842494 0.06666322 0.15286388 -0.100268885
000050 72 9a eb 3d 24 04 10 3e 45 1a 01 3e 04 54 62 bc
       0.115040675 0.1406408 0.12607677 -0.013813976
000060 30 bf ed 3b ba 8c c9 3d dd ef c0 3d 03 1c d5 3c
       0.0072554573 0.098412946 0.0942075 0.026014334
000070 62 ba 9c 3d 47 0b c8 3c a2 5b 2f 3e f4 05 9a 3d
       0.07652737 0.02441944 0.17124799 0.07520667
000080 2e a6 83 bd 76 de a5 bd b8 cd 3c bd 88 67 f2 3d
       -0.06428181 -0.08099072 -0.046094626 0.11836153
000090 a2 c3 ab bd db 1f 3d 3d 29 63 e2 3d e5 89 2a 3e
       -0.083869234 0.046172958 0.110540695 0.16654165
0000a0 ff 86 21 bd 3d b0 00 3e f7 a8 62 bd cb d2 04 3d
       -0.039435383 0.1256723 -0.05533692 0.03242759
0000b0 fc b4 1e bd 4a cc 80 bd fa e9 20 3c 80 ca 55 3e
       -0.03874682 -0.06288965 0.009821409 0.20878029
0000c0 5c 1f 9f 3d a6 ca 58 bd 49 30 90 bd 2f 41 f9 bd
       0.07769653 -0.052927636 -0.0704046 -0.12170636
0000d0 13 4c 72 bd 54 9a d9 3d b7 eb 02 bd ed 69 01 3e
       -0.05915458 0.10625139 -0.031963076 0.12638064
0000e0 71 4d 44 3d 0f 7a 46 bd 1a f1 2b 3d ca bb e2 3d
       0.047925416 -0.048456248 0.04197798 0.11070974
0000f0 4c e5 57 3e d2 3f c7 3a 6e 54 0c 3c b0 c0 67 bd
       0.21083564 0.0015201515 0.0085650515 -0.056580245
000100 f3 ec c3 3d d5 50 d1 3d cc 79 76 3d 51 43 d3 bd
       0.09566679 0.102204956 0.06017475 -0.10315574
000110 7a 17 31 bd 30 ac ca bd 98 c6 08 bd 7b 3e 95 3d
       -0.04323528 -0.098961234 -0.03339252 0.07287308
000120 1c 83 f7 3d 50 59 bb bd 48 35 ea 3d 10 de 7b bd
       0.12085554 -0.091478944 0.11435944 -0.061491072
000130 c7 78 e3 bb 7a 17 58 3e 7d 57 2a bd 75 f9 01 be
       -0.006941888 0.21102706 -0.04158734 -0.12692817
000140 47 ac 3a 3d 9a 2c 71 bd f8 e7 ca bc a6 4e 28 bb
       0.045574453 -0.058880426 -0.024768814 -0.0025681644
000150 7f f1 4c bd 26 21 a4 3d 85 af f3 bc d4 9a e2 bd
       -0.050034996 0.08014135 -0.02974678 -0.11064687
000160 47 12 a8 bd 1b 4c 06 bd 39 fd e1 bc a5 c0 8b bd
       -0.08206611 -0.032787424 -0.027586566 -0.068238534
000170 21 85 e1 3c 5d c0 0c bd 45 38 fa 3d aa 38 0e bd
       0.027529301 -0.03436314 0.12217764 -0.034722008
000180 71 57 03 be 74 40 89 3d 73 97 48 3d fd ee 15 3e
       -0.12826325 0.067017466 0.04897256 0.14641948
000190 b0 dd 00 3d 38 cd 7c bc 04 e7 40 3b ff 73 a6 bc
       0.031461418 -0.015429787 0.002943457 -0.020318983
0001a0 e9 fb 15 be bc e2 bf 3d 49 56 f0 3d bc e6 b6 bc
       -0.14646877 0.09369418 0.117352076 -0.02232682
0001b0 f6 de 80 3c f1 7c 79 3d f3 b4 92 bd d3 57 5e 3e
       0.015731316 0.06091017 -0.071634196 0.2171319
0001c0 1f 60 56 bd 19 8d 8b 3c 1e 24 45 bd b6 f0 b8 3d
       -0.052337762 0.017035054 -0.048130147 0.09030287
0001d0 54 33 e7 bc 0a 52 b5 3d 03 b9 82 bd 95 aa c4 3d
       -0.028222717 0.08853538 -0.063829444 0.096028484
0001e0 7f 38 97 bd aa 91 d5 3c ec a7 d6 3d e4 0a b3 bd
       -0.07383823 0.026070435 0.10481247 -0.087423116
0001f0 8e 89 f9 3d eb 3d c3 3d 1c 16 13 3e 32 f1 39 bd
       0.121844396 0.09533294 0.14363903 -0.045396037
000200 1e 67 a2 3d 60 41 8d 3d 08 20 17 3d ca 83 bd 3d
       0.07929824 0.06897235 0.03689578 0.092536524
000210 33 15 d1 3d 49 7c a7 bd be f8 e8 3c c2 c0 02 bd
       0.102091216 -0.081780024 0.028438922 -0.03192211
000220 a0 8f a3 bd 32 d6 91 bd 1b 2c cb bb 83 19 0f 3e
       -0.07986379 -0.07120933 -0.006200326 0.13974576
000230 e9 7b 08 3e 13 ee 89 bd bf 31 99 bd a3 35 80 3c
       0.13328518 -0.06734862 -0.074801914 0.015650576
000240 5f d4 1a 3d d3 56 4a bd fb 2c 01 bd 29 e2 00 be
       0.03780019 -0.04939921 -0.031537037 -0.12586273
000250 5d bc 47 3c 88 4b dc bd 7b 2c 26 bc 21 a2 15 bd
       0.012190905 -0.10756594 -0.010142441 -0.03653157
000260 69 7f 78 bd 2d e6 f2 bd 4d 76 82 3c 64 4f d1 bc
       -0.060668383 -0.11860309 0.01592555 -0.025550552
000270 d7 f9 77 3d 0d 3f 96 3d 76 1b 03 bd c3 c4 a0 3d
       0.060541 0.07336245 -0.03200861 0.07850029
000280 0f e6 9a bd 03 2e 69 bd df 29 16 bd ad 1c 71 3d
       -0.075634114 -0.056928646 -0.036661025 0.058865238
000290 85 25 f2 3d de 2b 44 3d 55 b4 11 3c f9 db d2 bd
       0.118235625 0.047893398 0.008893092 -0.10295863
0002a0 91 38 4e 3d bd 8a 12 3d 18 74 a5 3c d9 02 05 3c
       0.050346915 0.035776842 0.02019696 0.008118355
0002b0 92 54 5d 3d f8 a5 5e bd fb c8 d5 bc 98 7e 05 bc
       0.05403573 -0.0543575 -0.026096812 -0.008147858
0002c0 c8 aa f4 bd 79 be ea 3c e8 b0 c7 3d 1a 57 93 3d
       -0.119466364 0.028655278 0.09750539 0.07194348
0002d0 d6 c4 8b bd 4d 4b e2 bd 6c b0 57 3d 5b 58 6a 3d
       -0.06824653 -0.11049519 0.052658483 0.05721317
0002e0 e3 70 b8 3d 63 b1 00 3d c2 3c 9b bc ff ea de 3d
       0.090059064 0.03141917 -0.01894987 0.10884666
0002f0 78 29 cd 3b 92 16 81 bc a9 8a 06 3d eb 83 61 bd
       0.006261047 -0.015757833 0.03284708 -0.055057447
000300 4b 43 14 3e e9 ee 90 3c 78 bf e6 bd 8f 02 a8 3d
       0.14478795 0.017692046 -0.112669885 0.08203613
000310 84 0f a2 3d 78 46 94 bc fa ff 93 3c 82 a9 b4 bd
       0.079131156 -0.018100008 0.018066395 -0.088213935
000320 ec 3e ef bc ba ab d4 3d e3 f9 a5 3d 10 6e 7b bd
       -0.029204808 0.10384317 0.08104303 -0.06138426
000330 32 4b 0f 3d 29 f8 b1 bd ba c1 d7 bc 0d 4f d5 bd
       0.03498382 -0.08689911 -0.026337493 -0.10415468
000340 5a 0f 2c be dd 46 e8 3c f2 b9 5d 3d 6d 0f 2f bd
       -0.16802731 0.028354103 0.05413241 -0.04273932
000350 3f 49 30 bd 21 f7 af 3c be df 2b 3d 28 d9 ec 3d
       -0.043038603 0.021480145 0.041961424 0.11564857
000360 8b 7e 11 3c 4a 16 dd 3d 99 18 dc 3c 11 b5 3e bd
       0.008880268 0.10795267 0.026867198 -0.046559397
000370 c1 b7 a3 3d 9c 58 32 3d cc 80 86 3c e7 6d c0 bd
       0.07994033 0.043541536 0.016418837 -0.09395962
000380 dc 13 b2 bd 6d 7f cc bd 87 0d 0f bd 53 7c a9 3d
       -0.08695194 -0.09985242 -0.03492501 0.08275666
000390 51 e0 d7 bd a3 3d 95 3d 11 c2 8a bd d6 51 bb 3d
       -0.10540832 0.07287147 -0.067752965 0.09146468
0003a0 03 b4 90 bd cd 6e 0c 3c d3 7e 2b 3e 66 2c 95 bd
       -0.070655845 0.008571339 0.16747598 -0.07283859
0003b0 a8 c1 a4 bd 3f f1 0e 3d 26 5a 1a bd 1f c5 e7 3c
       -0.080447495 0.03489804 -0.03768363 0.028292237
0003c0 39 af 5c bd bc 92 e1 bd 82 11 aa 3c ce 1b 21 bd
       -0.053878043 -0.110143155 0.020760302 -0.039333157
0003d0 fe 0a d9 bc c4 9b 57 3d 59 85 ab 3c d2 51 5d bd
       -0.0264945 0.052638784 0.020937609 -0.054033108
0003e0 83 46 27 bd c5 b7 a8 bd 06 14 c2 3c 75 e7 48 bd
       -0.04083873 -0.08238176 0.023691189 -0.04904886
0003f0 fa c2 88 bc 73 bd f5 3d e7 3a 05 3e f6 c3 81 bc
       -0.016694535 0.11999025 0.1301075 -0.015840512

lstm.bias_hh_l0 f4 [256]
000000 c1 a1 93 bd 90 58 62 3d 32 9b 14 bd 43 d2 f5 bd
       -0.072085865 0.05526024 -0.03628082 -0.12002995
000010 05 06 e5 bd 9c 00 fb bd 75 89 e4 bb d8 a1 51 bd
       -0.11182789 -0.122559756 -0.006974394 -0.051179737
000020 67 e8 12 bd 7b 20 7e 3d 5a e8 14 3e 2b a9 5c bd
       -0.035866167 0.062042695 0.1454176 -0.05387227
000030 a3 8a 36 bd af 40 78 bc d8 29 0f 3e 10 71 bf 3d
       -0.044565808 -0.0151521405 0.13980806 0.09347737
000040 61 79 0a 3d 21 50 39 b9 92 74 01 3e c0 16 33 bd
       0.033807162 -0.00017672825 0.12642124 -0.043722868
000050 8e 61 50 bd 9a cb 00 3e 95 60 9d bd b8 fb e9 3d
       -0.050874285 0.12577668 -0.07684437 0.11424965
000060 7b e1 62 3d 48 8d ae bd 55 4e 11 3e 99 4b 9b bc
       0.055390816 -0.08523041 0.14190038 -0.018956946
000070 47 e0 52 bc f7 8f 48 3d 9a 8f 93 bb 38 4e f3 bd
       -0.012870855 0.04896542 -0.0045032026 -0.118801534
000080 4c 31 c5 bd 9e 44 57 3d dc 6d a6 3d 08 58 5a bd
       -0.09628543 0.052555673 0.08126423 -0.05330661
000090 bb ff aa 3c 30 77 6d 3d 5a 8f 88 3d 63 da 0a 3e
       0.020873895 0.057974994 0.06667967 0.1355987
0000a0 87 1b c9 bd a1 46 61 bd fc f2 32 3e fc 5a a3 3c
       -0.098197035 -0.054998998 0.17475504 0.019940846
0000b0 f4 6c 96 3d 42 30 67 3d b9 ca 13 be 74 10 9e 3d
       0.07345 0.056442507 -0.14432801 0.07717982
0000c0 43 21 e8 bb ce 1d b8 3d e8 c0 24 bc a7 2e df bd
       -0.007084043 0.0899006 -0.010055758 -0.1089757
0000d0 52 36 37 bd 7a b4 30 bc 6a 46 8e bd 73 86 1f 3d
       -0.04472954 -0.010785216 -0.06947024 0.03894658
0000e0 d0 79 23 bd 27 d1 94 bd 5a e3 9c bd 82 2b 90 3d
       -0.03991109 -0.07266455 -0.07660551 0.070395485
0000f0 d7 74 a7 3c ae c9 bd bd a9 d5 0a bd 36 ea 56 bd
       0.020441456 -0.09266983 -0.03389517 -0.052469455
000100 82 0e 9b bc 21 0d 47 bd e3 24 1a be 65 4a 09 3e
       -0.018927816 -0.048596505 -0.15053134 0.13407286
000110 4d dd ae bd f7 41 cf bb ce bf 3c bd dd 0a c5 3c
       -0.085383035 -0.0063250023 -0.046081357 0.024053032
000120 c0 9e 27 bc 52 ce e9 bd 56 ee f4 3c c8 9b 3f bc
       -0.01023072 -0.114163056 0.029898804 -0.011694856
000130 20 1e e1 3c 37 47 ae ba 19 a8 55 bd 52 c4 ab 3c
       0.027480185 -0.001329637 -0.052162264 0.020967636
000140 0c 67 0e 3d 48 3a d0 bd fb f7 01 3e 7f b6 de 3d
       0.034766242 -0.10167366 0.12692253 0.10874652
000150 11 e0 21 3d c7 9e 96 3d b4 c7 6b bd cc 9a a3 bd
       0.039520327 0.07354503 -0.0575635 -0.079885095
000160 a2 0a e0 bd 10 32 52 bd e9 67 07 bd 69 98 92 bd
       -0.10939528 -0.051317275 -0.03305808 -0.07157976
000170 0e d0 b1 bd ff c1 92 bd 89 5c f1 3d 52 56 9f bd
       -0.086822614 -0.07165908 0.11785228 -0.07780136
000180 fd b1 98 3d 6c 0c 62 3d dd 75 09 3e 5a f0 31 bb
       0.074558236 0.055187628 0.13423868 -0.0027151317
000190 f5 47 54 3d de a6 d7 bd 38 27 07 3e a1 71 47 3e
       0.051826436 -0.10529874 0.13198555 0.1947694
0001a0 49 1a 56 3b 48 bf 91 bc 96 ff e5 3c b0 fe 11 3e
       0.0032669476 -0.017791405 0.028075974 0.14257312
0001b0 76 7a f2 bc a5 84 e5 3d 5b be b5 3d 75 a9 45 3e
       -0.02959941 0.112069406 0.08874198 0.19302924
0001c0 7a b3 3e 3e 87 7d b2 bd 50 1e 68 bd f2 52 f8 bd
       0.18623152 -0.08715349 -0.056669533 -0.121251956
0001d0 76 ae d9 bd 8e 1a d7 3c c1 4f 58 bd 4a 6e 27 3e
       -0.10628979 0.02625778 -0.052810434 0.16350666
0001e0 ce 7e 49 3d ca 06 e6 bb e6 a7 f9 bc e8 07 fa bc
       0.049193196 -0.0070198523 -0.030475568 -0.030521348
0001f0 21 58 40 3e 0d 67 73 3d 31 d6 25 3e 07 aa 09 3e
       0.18783619 0.05942445 0.16194989 0.13443767
000200 37 e6 98 bd 6c a9 86 bd 6b af e4 bc 24 4b 7d 3d
       -0.07465785 -0.065752834 -0.027915677 0.061839238
000210 62 f7 d4 3b a7 24 28 3e a2 27 c7 bd e3 db 76 3c
       0.006499217 0.16420232 -0.09724356 0.0150670735
000220 50 fa ca 3d 18 c9 b5 3b 3d 9d 2d 3d 6e e2 78 bd
       0.099110246 0.005547654 0.042386282 -0.060762815
000230 b8 cb 81 bd 06 bb d5 3b b0 a8 25 bd a7 0b aa bd
       -0.063376844 0.006522539 -0.040444076 -0.08303004
000240 93 34 cd 3d 74 68 c6 bd b3 01 bd bd af 50 59 ba
       0.10019793 -0.096878916 -0.0922884 -0.0008289916
000250 81 2d 3f bd 78 34 0d 3c 1a 25 54 3b df 1a 00 be
       -0.046674255 0.008618467 0.0032370747 -0.1251025
000260 54 1a da bc 94 22 90 3d ca b2 91 3d cb 38 9e bd
       -0.026623882 0.07037845 0.071141794 -0.07725676
000270 0d 76 45 3d 60 46 cc 3b 79 20 84 3d f7 8a 8c 3d
       0.048208285 0.0062339753 0.06451506 0.06862443
000280 6e 92 16 3d c3 c5 2d bd a3 22 41 bc b1 4d af 3d
       0.03676074 -0.04242493 -0.011788043 0.0855974
000290 13 65 fc 3d cd 56 57 3d 91 49 51 3c 1a 50 b5 bc
       0.12323966 0.052573014 0.012773887 -0.022132922
0002a0 59 0f ef bd d5 e5 a3 3d bb 97 1d bd 5f 1d 0a 3c
       -0.11672849 0.08002821 -0.03847478 0.008429854
0002b0 b0 f0 61 3d 0e ee 50 bd 7b c3 79 bc 23 b2 96 bd
       0.055161178 -0.051008277 -0.01524436 -0.07358196
0002c0 18 a6 98 3d 95 ae 0a 3e d4 76 b0 bd 21 0c b6 bd
       0.07453555 0.1354316 -0.08616415 -0.08889032
0002d0 62 0f 4d 3d 95 74 e9 bd b9 28 80 3d 34 a0 d8 bd
       0.0500635 -0.113991894 0.06257767 -0.10577431
0002e0 e0 bf 81 3c d0 b9 f1 bd e7 d4 4f 3d e7 da 9e bd
       0.015838563 -0.11803019 0.05074015 -0.07756596
0002f0 e3 76 8d bd 59 89 34 bd 4e e6 dd bc 22 67 1d bc
       -0.069074415 -0.044076297 -0.027087357 -0.009607108
000300 27 36 1c 3c 2b 7b 1e 3d 22 b7 4c 3c 42 12 30 3d
       0.009534395 0.03869168 0.012494834 0.042986162
000310 f5 e2 61 3d ee c3 59 3d d1 0f 9e bd 56 1a 8c 39
       0.055148084 0.05316537 -0.077178605 0.00026722503
000320 5d 38 41 b8 91 34 51 3d ec fb 14 b9 e6 6b 46 3d
       -4.6067278e-05 0.05107552 -0.00014208228 0.048442744
000330 20 bf c0 3d 50 f5 ae bd 18 b1 1a bd 60 b2 3c bc
       0.09411454 -0.085428834 -0.037766546 -0.011517137
000340 b7 0b dd 3c be 5f b7 3d 8d e9 9c 3d fa d4 73 bd
       0.026983125 0.08953808 0.07661734 -0.059529282
000350 66 e1 10 bd 5e 3d 02 3e 8e c5 d2 3d 89 96 80 bd
       -0.035371207 0.12718722 0.10291587 -0.06278712
000360 70 ec 80 3c f4 d9 a2 3d 9b 59 a5 3c e8 b5 e1 bd
       0.015737742 0.079517275 0.020184329 -0.11021024
000370 d3 6a e8 bc 26 12 6d 3d 84 e8 57 3d 73 bd 7d bd
       -0.02837125 0.057878636 0.05271198 -0.06194825
000380 71 9e d8 ba dc ed cd 3d 5d 47 00 3d f4 e4 b5 3c
       -0.0016526711 0.10055134 0.031318057 0.0222039
000390 8c 78 0b 3d e8 c5 0c bb 93 bf 0a 3e 3d b7 ba 3d
       0.03405051 -0.0021480266 0.13549642 0.09116981
0003a0 09 d1 a2 bd ef 49 a6 3d 40 67 fb bc 7f 41 23 3e
       -0.079500265 0.081195705 -0.030688882 0.15942954
0003b0 98 8d fd bc 97 8e cb bd 4b 15 0d bd 9c 58 c8 3d
       -0.030951306 -0.09939306 -0.034444135 0.09782526
0003c0 9c 6a 5a bd 30 2a 6c bd aa 3f e2 bd cc e0 34 bc
       -0.053324327 -0.05765742 -0.11047299 -0.011039924
0003d0 39 85 2e 3d 4d fd 0b 3e 44 61 cb 3b 80 65 ac 3b
       0.04260752 0.13670845 0.0062066633 0.005261123
0003e0 56 67 c9 bd 78 8a 71 3d b8 e8 9f bd 8b 85 3b 3d
       -0.09834163 0.058969945 -0.078080595 0.045781653
0003f0 74 4c c7 3d a0 78 a1 bd 52 4b 5a 3d 47 6e 4a bd
       0.09731379 -0.078843355 0.053294487 -0.049421575

bn.weight f4 [64]
000000 39 37 79 3f 9f 4b 78 3f 5f e4 70 3f 2e e8 78 3f
       0.9734989 0.9699039 0.94098467 0.9722928
000010 99 e2 76 3f 53 40 3c 3f 83 e6 73 3f 1e cc 63 3f
       0.9643951 0.7353565 0.9527361 0.88983333
000020 e7 52 78 3f 25 e1 77 3f b4 e2 79 3f 14 d0 79 3f
       0.970015 0.9682792 0.97611547 0.9758313
000030 ef 70 7a 3f 7a fd 53 3f 81 0f 7b 3f 71 97 77 3f
       0.97828573 0.8280865 0.9807053 0.96715456
000040 24 ec 7a 3f b0 81 75 3f bb 0d 79 3f 7e a0 75 3f
       0.9801657 0.9590101 0.97286576 0.95948017
000050 3d 8d 7c 3f cc b9 5a 3f 69 c3 76 3f 68 9f 7a 3f
       0.9865301 0.85439754 0.9639192 0.97899485
000060 13 8b 79 3f 3b 9c 78 3f dc f8 78 3f fc 78 74 3f
       0.97477835 0.9711339 0.9725473 0.9549711
000070 97 1f 7c 3f 1b 04 3a 3f 5e 8f 6f 3f 95 13 6b 3f
       0.984857 0.72662514 0.93578136 0.91826755
000080 1e 66 75 3f 60 0c 74 3f 67 04 57 3f 35 5f 6a 3f
       0.95858943 0.9533138 0.8399109 0.91551524
000090 1a 34 79 3f 2e 31 79 3f d4 ea 78 3f 43 d6 73 3f
       0.97345126 0.9734067 0.9723332 0.9524881
0000a0 8e 08 42 3f 12 45 38 3f ea ff 34 3f 37 87 6b 3f
       0.75794303 0.7198039 0.70702994 0.92003196
0000b0 6d 57 79 3f 81 0c 51 3f fa 25 78 3f b5 35 6d 3f
       0.97399026 0.81659704 0.9693295 0.92660075
0000c0 9e d6 64 3f 8d 1a 6c 3f ec 34 3e 3f 8c 4d 73 3f
       0.8938998 0.92228013 0.742995 0.950402
0000d0 27 39 75 3f f6 5f 6e 3f 61 39 5c 3f 62 17 70 3f
       0.9579033 0.93115175 0.86025053 0.9378568
0000e0 20 1b 7c 3f 33 cd 78 3f e0 cb 34 3f 8d f2 78 3f
       0.9847889 0.9718811 0.7062359 0.97245103
0000f0 66 5a 79 3f 90 ed 77 3f 27 db 6b 3f 3d 0c 7c 3f
       0.9740356 0.96846867 0.92131275 0.98456174

bn.bias f4 [64]
000000 ba 2b af bc da c7 aa bc 03 4d 29 bc e4 ca 9c bc
       -0.021383155 -0.02084725 -0.010333302 -0.019139715
000010 c8 b8 87 bc 0e 30 f9 ba 35 b2 7a bc 00 fe 17 3c
       -0.016567603 -0.0019011514 -0.015301277 0.009276867
000020 74 86 ac bc ef 9f 9a 3c 8b 84 9f 3c b0 6c 9f bc
       -0.021060206 0.01887509 0.019472381 -0.019461006
000030 e0 07 ad bc 08 5d dd bc aa fd b1 bc 35 5b 96 3c
       -0.02112192 -0.0270219 -0.021727402 0.018354038
000040 19 03 ab 3c 81 f8 95 bc 74 47 9a 3c 4c 52 91 bc
       0.0208755 -0.018306972 0.0188329 -0.017739438
000050 1b 19 a6 3c 5f 05 ca bc e3 57 92 bc 99 d8 a0 bc
       0.020275643 -0.024660764 -0.017864173 -0.019634532
000060 e6 a6 9f 3c 09 65 9e bc c7 e9 9b bc 8b b8 93 3c
       0.019488763 -0.019335287 -0.019032372 0.018032333
000070 fb 16 a6 3c 28 83 0e bc 1f 17 c9 bc be 81 03 bc
       0.02027463 -0.008698262 -0.024547158 -0.008026538
000080 7e 63 9b bc 66 ed 78 bc 1a cb b2 bc 58 76 2f bc
       -0.01896834 -0.015193319 -0.021825362 -0.010709368
000090 68 0a 93 3c ab d8 92 bc 41 79 af bc af ab be 3c
       0.017949298 -0.017925581 -0.021420123 0.023275224
0000a0 b3 f2 ac bc 55 d1 38 3b 33 e6 87 3c 27 a5 42 3c
       -0.021111822 0.0028200943 0.01658926 0.011880196
0000b0 c5 c6 a3 3c 66 9e 20 bc 15 ce 91 3c 2b 36 c6 bc
       0.019992242 -0.00980339 0.017798463 -0.024195751
0000c0 c3 47 da bb f6 f7 c2 bc 58 76 ff 3b db c0 83 3c
       -0.0066613867 -0.023799878 0.00779609 0.016083172
0000d0 cb a2 57 bc 85 b8 33 3c b4 98 d7 3c 74 fb c2 bc
       -0.013161371 0.010969286 0.026317932 -0.023801543
0000e0 a7 a8 a5 bc 43 fa 9c bc 3a c6 03 bd c2 ec 9c 3c
       -0.020222021 -0.019162303 -0.032171465 0.019155864
0000f0 79 5e b0 bc 60 e0 be bc c9 91 28 3c a5 ad a8 3c
       -0.021529423 -0.02330035 0.010288664 0.020590613

bn.running_mean f4 [64]
000000 79 f8 84 bc af 00 70 bc 20 dc a2 3d bf af e4 3d
       -0.016231762 -0.0146486005 0.07952142 0.111663334
000010 e2 cc b1 3d 36 1a f8 bb d5 18 49 3d 59 ad 1a be
       0.086816564 -0.007571484 0.049095947 -0.1510519
000020 0b 40 1b bd 27 7e 96 3d 67 51 35 bd 89 fc 80 3d
       -0.037902873 0.073482804 -0.044267084 0.06298167
000030 29 3e 80 3c 7d 4b 80 be aa 2f 61 bd ad b6 ca 3c
       0.01565464 -0.25057593 -0.054977097 0.02474531
000040 d6 04 95 3d 89 1b 39 be b4 6c 78 be 00 b7 58 bd
       0.07276313 -0.1807691 -0.24260217 -0.052908897
000050 d5 98 85 3d 22 1b 83 be 6a fc 9b bd ba 56 9a bc
       0.06523291 -0.25606638 -0.076165035 -0.018840183
000060 36 53 a7 bd 77 ad ab bc 96 23 70 bd 22 87 a4 bd
       -0.08170168 -0.020956738 -0.058627687 -0.08033587
000070 09 d4 66 3d 73 57 01 3b 01 1c 01 3d 52 3b f6 3d
       0.056354556 0.0019735962 0.031520847 0.12023033
000080 13 65 23 bd fc db 12 bb 1e 26 7b be 69 6f 3b 3d
       -0.039891314 -0.0022408953 -0.2452626 0.045760546
000090 c7 fb 83 3d dc 74 f2 3d 81 50 b9 3c d9 c0 6d be
       0.06444507 0.118386954 0.022621395 -0.23218097
0000a0 d4 02 24 bc 6c a4 ad 3e 54 8e 60 3e 10 ab 8e bd
       -0.01001044 0.33914506 0.21929294 -0.06966221
0000b0 37 59 39 3e a4 68 09 be 35 65 2d bd 17 81 07 bd
       0.18100439 -0.13418823 -0.042332847 -0.033082094
0000c0 a0 42 5e 3d 3c 14 c0 3c 87 37 b3 3d e7 4c ba 3c
       0.054262757 0.023447149 0.087508254 0.022741748
0000d0 e6 68 c0 3b 37 a0 ce be b0 47 fe 3d 91 a7 8f bc
       0.00587188 -0.4035661 0.12416017 -0.017535957
0000e0 87 d5 42 3d db e7 c1 bd 2c b5 04 be bd 9d ef bc
       0.047566917 -0.09468051 -0.12959737 -0.02925002
0000f0 ee a9 6c bd ca 2c 04 bd 62 a0 35 be c1 c6 fb bc
       -0.057779245 -0.032269277 -0.17736962 -0.030734422

bn.running_var f4 [64]
000000 ae 71 29 3c 8d 66 0b 3b d2 27 8e 3b 4a 5d c4 3b
       0.010342045 0.0021270842 0.004338243 0.0059925662
000010 c9 48 9b 3a 49 d2 71 3a f4 78 8b 3b f0 32 85 3b
       0.0011847253 0.00092247553 0.004256362 0.00406491
000020 9e eb 70 3c 7f f5 26 3b 50 33 4c 3b b2 da 21 3b
       0.014704613 0.0025475917 0.0031158514 0.0024697003
000030 a0 92 53 3b 70 8d 10 3d 98 84 63 3c c4 ed 19 3b
       0.003228344 0.035291135 0.013886593 0.0023487667
000040 9d 92 60 3b 62 86 83 3c 60 d2 dd 3b 6b 46 be 3b
       0.0034267076 0.01605529 0.0067694634 0.0058067343
000050 36 8e 63 3c e4 27 95 3d 1b 3b 28 3b a5 02 1c 3c
       0.013888886 0.07282999 0.0025669995 0.009522115
000060 89 9f db 3b f4 9d 9a 3b 25 d8 7d 3b 61 6a 13 3b
       0.0067023677 0.0047185365 0.0038733569 0.0022493827
000070 3f 68 fb 3b a1 3f 15 39 03 07 b6 3c fd af a3 3b
       0.007672339 0.00014233451 0.02222014 0.0049953447
000080 15 80 af 3a c7 a6 e1 3b a6 74 5d 3c 63 ea 18 3c
       0.0013389612 0.0068863365 0.013516581 0.009333226
000090 c4 f8 93 3b 37 a9 ae 3b 4e 58 9b 3c 58 9b b2 3c
       0.004515739 0.0053302306 0.018963005 0.02180259
0000a0 27 4f b1 39 61 8b f8 3c c1 b2 95 3c 70 57 f6 3a
       0.00033819044 0.030339899 0.018273713 0.0018794369
0000b0 58 a8 96 3b 47 60 00 3c bb bb d6 3a ef f9 5e 3d
       0.004597705 0.007835454 0.0016382852 0.054437574
0000c0 8e 5e 34 3c e0 98 73 3b 5b 5c 98 3c 81 0e 87 3a
       0.011008872 0.0037169978 0.018598726 0.0010304005
0000d0 e8 6f c1 3a ae 5f 4d 3d 15 8a cd 3b 58 80 c5 3c
       0.0014758082 0.050140075 0.006272564 0.02410905
0000e0 6c 62 49 3b b2 64 52 3b 26 c5 04 3c 3b 65 19 3b
       0.003072883 0.0032103476 0.0081036445 0.0023406285
0000f0 f6 4b ea 3c 1b 70 45 3b c8 5f 3a 3c 0f f6 2f 3c
       0.028600674 0.0030126635 0.011375375 0.010739817

fc.weight f4 [2, 64]
000000 4c 34 d4 3d 68 de d2 3d ba d0 e8 3d 6e ef 43 3d
       0.10361537 0.10296327 0.113679364 0.04783576
000010 a2 5a ef bc 87 59 cb 3c bb 74 17 bd 63 ee 40 3a
       -0.029218022 0.024822963 -0.036976557 0.0007359741
000020 ff 36 ad 3d db ec 91 bd ed 06 97 bd 6a 1c 98 3d
       0.08457755 -0.07125255 -0.07374368 0.074272946
000030 52 c6 df 3c c0 74 99 3d d5 09 40 bc ee d4 87 bc
       0.027316246 0.074929714 -0.011721094 -0.016581025
000040 be d7 52 bd e9 a8 41 bd b4 7c 41 bd a8 8b 9c 3d
       -0.05147528 -0.047280226 -0.047238067 0.07643825
000050 68 98 4a bc 2f 30 bc 3d 87 61 3d bd d6 08 20 3d
       -0.012365438 0.09188878 -0.046235587 0.039070927
000060 f1 03 3f bc 70 ab b2 3d e8 c5 50 3d d8 8f 97 bd
       -0.011658655 0.08724105 0.050969988 -0.07400483
000070 4a 33 6c bd 18 5d 41 bd 46 48 b9 bd 2a 1e b7 3c
       -0.0576661 -0.04720792 -0.09046988 0.02235325
000080 9c aa 86 b9 c0 87 97 bb fa 91 86 bd 29 ef 61 3d
       -0.00025685586 -0.004624337 -0.065708116 0.05515972
000090 f0 e7 9f bc a3 4b 3f 3d 2d 3c 57 3c a5 d0 a0 bd
       -0.019519776 0.046702992 0.013136906 -0.07852296
0000a0 f9 a6 8b 3c bb 74 c0 3d 63 75 67 bd f3 61 d2 bc
       0.017047392 0.093972646 -0.056508433 -0.025681471
0000b0 8c b1 a8 bb ef 24 d2 3c 42 07 34 bd 57 ea ab 3c
       -0.0051481184 0.025652377 -0.043952234 0.020985765
0000c0 00 1e 1a 3d 2f ea b7 3d c8 d9 2d 3d 6b 66 90 bc
       0.037626266 0.08980214 0.04244402 -0.017626962
0000d0 ca 6d 02 3d e1 e8 be bd b2 8d 19 3b 81 6f 69 bd
       0.031842984 -0.09321762 0.0023430404 -0.056991104
0000e0 9c 99 da 3d 00 66 10 bd 17 59 d5 3d b0 ce c7 bd
       0.1067383 -0.035253525 0.10417383 -0.097562194
0000f0 b7 dd b0 3d 35 b5 94 3d 53 b7 c6 3c 23 7d f0 bd
       0.08636039 0.07261125 0.024257338 -0.11742618
000100 93 23 ab bc 51 44 cf 3c af 5d cf 3d f5 ac 41 bd
       -0.020890987 0.02530113 0.101252906 -0.047284085
000110 99 3f 3c bd 46 ac ae 3c 55 18 45 bd 5f eb 44 ba
       -0.04595909 0.02132238 -0.048118908 -0.00075118797
000120 52 68 a3 bd 74 8f 95 bc fa ac 10 3d 03 39 02 bd
       -0.07978882 -0.01825688 0.035321213 -0.03179265
000130 c3 c1 37 bd 3a 6e 94 3d e6 0f a3 bd b1 6a 38 3d
       -0.04486252 0.072475865 -0.07962017 0.045023624
000140 2e d8 b0 3d c5 84 8c bd a2 d9 c3 3c 93 f7 36 3d
       0.08634983 -0.06861261 0.023907486 0.0446697
000150 d3 2a cb 3d e1 6f cd 3d 24 de c1 bd 07 a6 ce bd
       0.099202774 0.10031105 -0.09466198 -0.10090261
000160 4e 77 bc 3d 9a e8 82 bd 2b 29 a0 bd bb ff c0 3c
       0.09202443 -0.063920215 -0.07820352 0.023559442
000170 b0 49 d4 3d 2e 88 28 bd 83 37 c6 bd 80 9d 80 3b
       0.10365617 -0.041145496 -0.09678557 0.0039250255
000180 56 22 8f bd 63 a2 14 bd 3d 53 9c bd 96 aa 12 3d
       -0.06988971 -0.036287677 -0.07633064 0.035807215
000190 8f f8 5f 3d 52 8a 6f bc 4a c0 b2 bd 49 b3 59 bd
       0.054680403 -0.0146203805 -0.087280825 -0.053149495
0001a0 00 1f 9f 3c db 24 ac 3d 5e dd 5e bd 14 3f df bc
       0.019423962 0.08405467 -0.05441033 -0.027251758
0001b0 76 91 97 3d 52 2a 01 3d f5 3a 90 3c 5c be ab 3c
       0.07400791 0.0315345 0.017606238 0.020964794
0001c0 18 a0 fc 3c 61 0e 9e 3d 10 1e 8d 3c 5d 86 e2 bb
       0.030838057 0.07717586 0.017226249 -0.00691299
0001d0 e6 b3 e5 3c 2c c8 9a bd be 46 c1 37 10 23 83 bd
       0.028039884 -0.07557711 2.3040335e-05 -0.06403172
0001e0 6f da c7 bd 3c 77 9d bd 4a 3e cd 3d 2e 8f 24 3d
       -0.0975846 -0.07688758 0.10021646 0.04017561
0001f0 95 aa f6 36 78 66 29 3c b2 09 f9 3c 51 28 43 bd
       7.3512297e-06 0.010339372 0.03040013 -0.04764587

fc.bias f4 [2]
000000 8b 22 16 bd 3a cb 08 3e
       -0.036654036 0.13358775
