foolball_predict_model/models/catboost_pytorch.pth (torch, 20450 bytes, 6 tensors)

model.0.weight f4 [64, 34]
0	0x3ddee975	0.10884372
1	0x3e2b2dd3	0.167167
2	0xbde1be77	-0.110226564
3	0xbe6daa33	-0.23209457
4	0xbcc3f7cd	-0.023921872
5	0xbe8cdd6a	-0.27512676
6	0x3dc91266	0.09817962
7	0x3c162964	0.009165142
8	0xbe2f2159	-0.17102565
9	0xbdbe8012	-0.09301771
10	0xbdcbca7e	-0.09950732
11	0x3d992122	0.07477023
12	0x3de6ef3e	0.112761006
13	0xbe469b08	-0.19395077
14	0x3d0d5e50	0.03451377
15	0x3e048a3a	0.12943354
16	0xbc922c3c	-0.017843358
17	0xbe872ed4	-0.26402915
18	0xbe0a479d	-0.13503881
19	0xbdf98e3e	-0.12185334
20	0x3e76cb6b	0.24101035
21	0x3e5721f2	0.21009043
22	0xbe80e044	-0.251711
23	0x3e899151	0.2686868
24	0xbe85dd74	-0.26145518
25	0xbe5f2575	-0.21791632
26	0x3e0f3468	0.13984835
27	0xbe442436	-0.19154438
28	0xbc174260	-0.009232134
29	0x3d76915a	0.06019721
30	0x3dde32d9	0.10849542
31	0x3e03abdc	0.12858528
32	0x3d0cf78d	0.03441577
33	0xbdb14f3b	-0.0865769
34	0xbe9e08e0	-0.30866146
35	0xbe59b3a6	-0.21259937
36	0x3e212e42	0.15740302
37	0xbdaecb56	-0.08534877
38	0x3d7d662d	0.06186502
39	0xbd4f5be5	-0.050624747
40	0x3bdbba00	0.0067055225
41	0x3de5a999	0.11213989
42	0x3db65f7b	0.0890493
43	0x3c064895	0.008196016
44	0xbd2732e0	-0.040820003
45	0xbd0611ba	-0.03273175
46	0x3db6334e	0.08896504
47	0xbbfdf805	-0.0077505135
48	0x3dae65c3	0.08515503
49	0x3e0b89b0	0.13626742
50	0xbdb31c98	-0.08745688
51	0x3e01ce2b	0.12676303
52	0xbddd5e82	-0.108090416
53	0xbe7a80f7	-0.24463259
54	0x3dac57bf	0.08415174
55	0x3dca10ea	0.09866507
56	0x3e24401f	0.16040085
57	0x3beb149d	0.007174088
58	0x3d98216f	0.07428252
59	0xbeb60210	-0.3554845
60	0x3e2a47f4	0.1662901
61	0x3e72b229	0.23700775
62	0xbc9b0607	-0.018923772
63	0x3e8f0c24	0.2793895
64	0xbe840939	-0.25788286
65	0xbd24415d	-0.040101398
66	0x3d5f9282	0.05458308
67	0xbe0f716c	-0.14008111
68	0x3d891d00	0.066949844
69	0x3d334e8d	0.043776084
70	0x3e854c7e	0.2603492
71	0x3d3e5a32	0.046472736
72	0xbd376b41	-0.04478002
73	0x3e8138d9	0.25238684
74	0xbb565a2e	-0.003270756
75	0xbe5c39e4	-0.21506459
76	0xbe801721	-0.25017646
77	0xbe8f7649	-0.28019932
78	0x3dc234e8	0.09482747
79	0xbd0e4f52	-0.034743614
80	0xbedb014e	-0.42774433
81	0x3df82588	0.121165335
82	0xbd85156d	-0.06498227
83	0x3d8fbcfb	0.07018467
84	0x3e1745f0	0.14772773
85	0xbf013925	-0.5047782
86	0xbdfeac18	-0.12435168
87	0xbeb66b6c	-0.3562883
88	0xbf2fd36e	-0.6868199
89	0x3e63fb4d	0.22263832
90	0x3e8ac21c	0.2710122
91	0xbefaacd5	-0.48959985
92	0x3d748664	0.059698477
93	0xbef6f07b	-0.48230347
94	0xbd839992	-0.064257756
95	0xbe56c645	-0.20974071
96	0xba9581f6	-0.0011406529
97	0x3e2fd1a9	0.17169823
98	0xbd65e1fa	-0.05612371
99	0x3d92f468	0.07175523
100	0xbdf245db	-0.1182973
101	0x3c99262f	0.018694965
102	0x3b98882d	0.0046549053
103	0xbd0c106d	-0.034195352
104	0xbef76ee5	-0.48326793
105	0xbea7e047	-0.32788298
106	0xbe7ae795	-0.24502404
107	0xbe89fdcd	-0.26951447
108	0x3dfaf305	0.122533835
109	0x3e22f452	0.15913513
110	0x3e08da2d	0.13364477
111	0xbd6d6f83	-0.057967674
112	0xbb1da101	-0.0024052265
113	0xbdf27051	-0.11837829
114	0xbe46aac2	-0.19401076
115	0x3e131532	0.14363554
116	0xbe2f81d3	-0.17139368
117	0xbee33c2a	-0.4438184
118	0xbe54fb00	-0.20798874
119	0x3bb91b25	0.005648988
120	0xbdf74118	-0.120729625
121	0xbcc808e3	-0.0244183
122	0xbe1aa8ac	-0.15103406
123	0x3c89872c	0.016788088
124	0xbdafbe27	-0.085811906
125	0xbe4bdf5f	-0.19909428
126	0xbe89c95a	-0.26911432
127	0xbdd2bbd9	-0.10289735
128	0xbe798886	-0.24368486
129	0x3e49ecc1	0.1971922
130	0xbd16af61	-0.036788348
131	0xbc757992	-0.014982598
132	0x3e8f3377	0.27968952
133	0xbbf4bfdb	-0.00746916
134	0x3d83e8a9	0.06440861
135	0xbdc2675d	-0.09492371
136	0xbd2dc07a	-0.042419888
137	0x38ebe987	0.00011249171
138	0xbe53cf9a	-0.20684662
139	0x3d3ef5ed	0.04662125
140	0x3db26308	0.08710295
141	0x3e7d4b6e	0.24735805
142	0x3d92b9bb	0.071643315
143	0x3e0ffb9a	0.14060822
144	0x3e30171a	0.17196313
145	0xbe3adbf5	-0.1824797
146	0xbe82dd1f	-0.25559327
147	0x3d8a7832	0.06761207
148	0xbdfd427a	-0.12366195
149	0x3e11a258	0.14222085
150	0x3c2a9a3a	0.010412747
151	0x3ce8e496	0.02842931
152	0xbe8205da	-0.2539509
153	0xbe23ba07	-0.15988933
154	0x3e3fee10	0.18743157
155	0x3e692e13	0.22771482
156	0x3e98f480	0.2987404
157	0xbe95ac1b	-0.2923287
158	0xbc04eb6f	-0.008112772
159	0x3e0212a0	0.12702417
160	0xbdddaab5	-0.108235754
161	0xbdbdefb6	-0.09274237
162	0xbd7e2c7d	-0.062054146
163	0x3e2bd9c9	0.16782297
164	0x3ae27937	0.0017278556
165	0x3e7b3a37	0.24533926
166	0xbcd97c2f	-0.026548473
167	0x3af05f8e	0.0018339024
168	0xbd77fca4	-0.06054367
169	0xbd5b9b25	-0.053614754
170	0x3e20882b	0.15676944
171	0xbd394bea	-0.045238413
172	0xbe1713e8	-0.14753687
173	0x3d309a50	0.043115914
174	0xbdbbc714	-0.091688305
175	0x3da55ce4	0.08074358
176	0x3d602199	0.05471954
177	0xbcb0c4bd	-0.021578187
178	0xbe2dbddc	-0.16966957
179	0xbd710930	-0.058846653
180	0xbd6933b9	-0.056934092
181	0xbdcc4f6a	-0.099760845
182	0x3e0edeef	0.1395223
183	0xbdb27ff9	-0.08715815
184	0x3e46f062	0.19427636
185	0xbdf4bff1	-0.119506724
186	0xbd54cfde	-0.05195605
187	0xbdc40a10	-0.09572232
188	0x3d0e0a97	0.034678068
189	0xbb9830bb	-0.004644481
190	0xbda73dab	-0.08166059
191	0x3ea585a4	0.32328522
192	0x3d37e699	0.04489765
193	0x3e3231e2	0.17401841
194	0xbeb4fc0a	-0.3534854
195	0xbdeaa068	-0.11456376
196	0xbe222686	-0.15835008
197	0xbe857a57	-0.260699
198	0xbc83986b	-0.01606389
199	0x3e077930	0.13229823
200	0x3e919318	0.28432536
201	0x3e206717	0.15664326
202	0xbd9553f1	-0.07291401
203	0x3da70de0	0.08156943
204	0x3e0c2638	0.13686454
205	0x3d2770c9	0.040879045
206	0xbe228e71	-0.1587465
207	0xbd34b3b9	-0.04411671
208	0xbe475abf	-0.1946821
209	0xbe0c2333	-0.13685302
210	0xbda3de45	-0.08001379
211	0xbd7ccc40	-0.061718225
212	0xbe68ae45	-0.22722729
213	0xbb92e896	-0.004483293
214	0x3e05fcda	0.13084736
215	0xbd27c9c2	-0.040963896
216	0x3e334aee	0.17509052
217	0xbe0b138e	-0.13581678
218	0xbce44d9a	-0.027869035
219	0xbd5c9404	-0.053852096
220	0x3d2541aa	0.040345825
221	0xbe3bc8c7	-0.18338309
222	0xbdadd57c	-0.084879845
223	0x3e52ff75	0.20605262
224	0xbc04e401	-0.008111001
225	0xbe422038	-0.18957603
226	0x3c81f5c7	0.015864266
227	0xbd846709	-0.06464965
228	0xbdcdfc2b	-0.10057863
229	0x3da0e96e	0.07857023
230	0xbaab2374	-0.001305683
231	0x3dbb768b	0.0915347
232	0x3be0eacb	0.006863927
233	0x3e9cf550	0.3065591
234	0xbe8f3f91	-0.27978185
235	0x3e89b625	0.26896778
236	0xbb88aea7	-0.004171211
237	0x3dae8298	0.085210025
238	0xbe542bcd	-0.20719834
239	0xbb8ffaaa	-0.004393895
240	0xbdba836e	-0.091070995
241	0xbd7c3cc5	-0.06158139
242	0x3dca3748	0.09873825
243	0x3ca5d57f	0.020243404
244	0x3db3a6a1	0.08772016
245	0x3e224176	0.15845284
246	0xbe2c9d6c	-0.16856927
247	0xbe2308e2	-0.15921357
248	0x3d45f924	0.048333302
249	0x3e3b405e	0.18286273
250	0xbc555e20	-0.013022929
251	0x3cee4ad4	0.029088415
252	0x3de52b6f	0.11189925
253	0x3d0f0d1e	0.03492462
254	0xbe72c81b	-0.23709147
255	0xbd44b998	-0.04802856

model.0.bias f4 [64]
0	0xbe4f345b	-0.20234816
1	0xbc6d82f7	-0.0144965565
2	0xbc1791ac	-0.0092510395
3	0x3df86771	0.12129105
4	0x3d8ebf63	0.06970098
5	0x3cf1300b	0.029441854
6	0xbdb6d078	-0.08926481
7	0xbe901ff2	-0.28149372
8	0xbd030aa3	-0.031992566
9	0xbdc4b91e	-0.09605621
10	0x3e3f545f	0.18684529
11	0x3d92955f	0.071573965
12	0xbe350b7e	-0.17680165
13	0x3e206250	0.15662503
14	0x3d24bba5	0.040218014
15	0xbe83189e	-0.2560472
16	0xbe0bac76	-0.13640007
17	0xbd60ab19	-0.05485067
18	0x3d890f9a	0.06692429
19	0x3d3e429b	0.04645024
20	0x3e0f6050	0.14001584
21	0xbcf4122b	-0.02979382
22	0xbe991537	-0.29898998
23	0xbd641e90	-0.05569321
24	0x3d66afc5	0.05631997
25	0x3dc80ca3	0.09768035
26	0x3db9603b	0.09051558
27	0x3dbae988	0.09126574
28	0x3d62dad2	0.055384465
29	0xbe30c5d4	-0.17262965
30	0xbe3911d4	-0.18073207
31	0x3e83ca4f	0.25740287
32	0x3e36b1d4	0.17841274
33	0x3d11c3ff	0.035587307
34	0x3dee4fde	0.11636327
35	0x3c300227	0.010742701
36	0xbc72d45e	-0.01482114
37	0x3c845b43	0.016156798
38	0x3c91193c	0.017712228
39	0xbd53ed2f	-0.051739868
40	0x3d912fad	0.070891716
41	0xbd84acd6	-0.06478278
42	0xbe2ce9d7	-0.16886078
43	0xbd586990	-0.052835047
44	0x3e3d98af	0.18515275
45	0xbe4832bd	-0.19550605
46	0x3de3f483	0.11130621
47	0xbe9e3d9f	-0.30906388
48	0x3d34742f	0.044056114
49	0xbe2e34ad	-0.17012282
50	0x3dd1e898	0.10249442
51	0xbe760dd6	-0.24028715
52	0x3c54f041	0.012996734
53	0xbd95b627	-0.073101334
54	0xbda847a4	-0.08216789
55	0xbe261b97	-0.16221462
56	0x3d9fc4e4	0.07801226
57	0xbca081b8	-0.019593105
58	0xbd9872f5	-0.07443801
59	0xbd954c9d	-0.072900034
60	0xbd8d6eca	-0.06905897
61	0x3d6800c3	0.05664135
62	0xbe4a47c4	-0.19753939
63	0x3d44506d	0.047928263

model.3.weight f4 [32, 64]
0	0xbe88702a	-0.26648074
1	0xbd8797f8	-0.066207826
2	0xbeb9a8c1	-0.36261562
3	0x3d982d77	0.07430547
4	0x3e0e48e7	0.13894998
5	0xbde2cf12	-0.11074652
6	0xbe9e0373	-0.30862007
7	0x3df5ac12	0.119957104
8	0xbe194169	-0.14966358
9	0x3e31b2fd	0.17353435
10	0x3d9169ab	0.07100233
11	0xbe05a236	-0.1305016
12	0xbeeff0b8	-0.4686334
13	0x3e53f8af	0.20700334
14	0x3dbce519	0.092233844
15	0x3df90fb4	0.12161198
16	0x3cb76e6c	0.02239152
17	0x3dc2ec2f	0.09517705
18	0x3d5526e7	0.052039053
19	0xbd457333	-0.048205566
20	0xbe97ae2f	-0.2962508
21	0x3df8af8a	0.121428564
22	0x3dfa6aea	0.122274235
23	0xbd839785	-0.064253844
24	0x3dba2f54	0.090910584
25	0xbe000b60	-0.12504339
26	0xbd9e8351	-0.0773989
27	0x3d61e3b3	0.05514879
28	0xbeb0a129	-0.34497955
29	0x3ea59eba	0.3234766
30	0x3de5ff79	0.11230368
31	0x3e163550	0.14668775
32	0xbdaaf62f	-0.08347737
33	0xbdcf3f01	-0.10119439
34	0xbe9e08fd	-0.30866233
35	0x3ef0a428	0.4700024
36	0x3c846358	0.016160652
37	0x3e89bd5f	0.2690229
38	0xbe180f6f	-0.14849637
39	0xbe3d361f	-0.18477677
40	0x3d6b23c0	0.05740714
41	0x3db6e8c0	0.08931112
42	0xbe668732	-0.2251251
43	0x3e19b8f9	0.15011968
44	0x3e0685ee	0.13137028
45	0xbdd784f6	-0.10523407
46	0xbe51623e	-0.20447633
47	0xbe85e4c6	-0.26151103
48	0xbdaa8328	-0.08325797
49	0x3ec524d8	0.38504672
50	0xbd9d07e9	-0.07667524
51	0x3dc02174	0.09381381
52	0x3dfe12f2	0.12405957
53	0xbe2b6a81	-0.16739847
54	0xbdfea853	-0.12434449
55	0xbe93d788	-0.28875375
56	0x3e578a6d	0.21048899
57	0x3e906f53	0.28209934
58	0x3e0f6b3f	0.14005755
59	0x3ea89d94	0.32932723
60	0x3da30c6c	0.07961354
61	0xbdfdedc6	-0.12398867
62	0xbe282655	-0.16420873
63	0xbe456184	-0.1927548
64	0x3b8231e3	0.003973232
65	0xbe8e0dbc	-0.27744853
66	0x3e410702	0.1885033
67	0xbe5681fc	-0.20948023
68	0xbc50ad10	-0.012736574
69	0x3db9cf67	0.09072762
70	0xbcdaf70b	-0.026729127
71	0x3d691bd6	0.056911312
72	0x3e47e27b	0.19519989
73	0xbc475986	-0.01216734
74	0xbd923fee	-0.071411
75	0x3eb10f75	0.34582105
76	0xbdc6ec06	-0.09712987
77	0x3d54182c	0.051780865
78	0xbc1a63c8	-0.009423204
79	0x3e498680	0.19680214
80	0xbb5c2a70	-0.003359463
81	0xbddbec9e	-0.107384905
82	0xbeefe595	-0.46854845
83	0xbe542376	-0.20716652
84	0xbb03d20b	-0.002011421
85	0x3c9c2131	0.019058796
86	0x3e1e0e24	0.15435082
87	0xbe217e9f	-0.15770958
88	0xbf1dd052	-0.61645997
89	0x3d238ce2	0.03992928
90	0xbe04b676	-0.12960228
91	0xbec59949	-0.3859351
92	0x3d183ac2	0.03716541
93	0x3b91fa68	0.0044548996
94	0xbe1dcd67	-0.15410386
95	0xbe11e302	-0.14246753
96	0x3de1d900	0.110277176
97	0xbc49622c	-0.012291472
98	0xbdf1f653	-0.11814561
99	0xbe374a21	-0.17899372
100	0xbd2ba700	-0.04190731
101	0xbde9939a	-0.11405106
102	0xbead38b5	-0.33832327
103	0xbd3bd212	-0.045854636
104	0x3db8e95a	0.09028883
105	0xbec0891e	-0.37604612
106	0x3dffa2bb	0.1248221
107	0xbe5fc60e	-0.21852896
108	0xbec2a08a	-0.38013107
109	0x3da7933a	0.08182378
110	0xbe59dd9a	-0.2127594
111	0x3dc2a129	0.09503395
112	0xba3806fd	-0.00070200843
113	0xbe70e6e9	-0.23525585
114	0x3c2d4f8c	0.0105780475
115	0x3dadd489	0.084878035
116	0x3d498d3b	0.049206953
117	0x3e91ae09	0.2845309
118	0x3da564c9	0.08075864
119	0x3d92c41f	0.071663134
120	0xbe0328f6	-0.12808594
121	0x3d0f4425	0.034977097
122	0x3c942af2	0.018086884
123	0xbd0d6d13	-0.03452785
124	0xbe8f7592	-0.28019387
125	0xbe266ebb	-0.16253178
126	0x3e11605c	0.14196914
127	0xbebbd5c6	-0.36686534
128	0x3c14d451	0.009083823
129	0xbe9cbf3e	-0.30614656
130	0x3e7e274d	0.2481968
131	0xbe7d0336	-0.24708256
132	0x3e3cf979	0.18454541
133	0x3e034c2d	0.12822028
134	0xbd1137eb	-0.03545372
135	0x3e04c2ed	0.12964983
136	0xbc7c2a34	-0.015390921
137	0xbc36575c	-0.011129227
138	0xbe5046d8	-0.20339525
139	0x3ec8a31b	0.3918694
140	0x3cc8bea4	0.024504967
141	0xbc35dd0b	-0.011100064
142	0x3e303656	0.17208228
143	0x3e461984	0.19345671
144	0x3e05f937	0.13083349
145	0xbe608554	-0.2192586
146	0xbec72188	-0.3889277
147	0xbe795ba5	-0.24351366
148	0xbdd29482	-0.10282232
149	0x3d5b2788	0.053504497
150	0x3d4b014a	0.049561776
151	0xbe30fa54	-0.17282993
152	0xbec4a51f	-0.38407227
153	0x3c23cdc4	0.009997789
154	0xbe0142e0	-0.12623167
155	0xbe5a2b10	-0.2130549
156	0x3e52fffc	0.20605463
157	0x3cc24ed5	0.02371923
158	0xbe1ba2dd	-0.15198846
159	0xbd91fd3d	-0.071283795
160	0xbe32a232	-0.17444685
161	0xbd503882	-0.05083514
162	0x3cd865ac	0.026415668
163	0xbdc2ea3f	-0.09517335
164	0xbda093d2	-0.078406945
165	0xbd3c5493	-0.045979094
166	0xbec7e4f4	-0.39041865
167	0xbeb9415e	-0.36182684
168	0xbd97c677	-0.07410901
169	0xbe865b42	-0.262415
170	0x3dc7ff05	0.09765438
171	0xbec61505	-0.38687912
172	0xbe32afb0	-0.17449832
173	0xb96c7d32	-0.00022553353
174	0xbea32943	-0.31867418
175	0x3d937eaf	0.07201897
176	0x3d533f5f	0.051574107
177	0xbec1f92f	-0.37885424
178	0xbd8a832a	-0.06763299
179	0xbd63de30	-0.055631816
180	0xbcf031fd	-0.029320711
181	0xbed42ab5	-0.41438833
182	0x3e5818e7	0.2110325
183	0x3e439751	0.19100691
184	0xbe87fb96	-0.26559132
185	0x3e1956ee	0.14974567
186	0xbc697513	-0.014249104
187	0xbe3879d3	-0.18015222
188	0xbd821480	-0.06351566
189	0xbe974e68	-0.29552007
190	0x3e1b8554	0.1518758
191	0xbf0eeea4	-0.55832887
192	0xbea079ca	-0.31342918
193	0x3c8a7601	0.016901972
194	0xbe9f48a0	-0.31110096
195	0xbe3ae68d	-0.1825201
196	0xbd491f69	-0.04910222
197	0xbd964dcc	-0.07339057
198	0xbdc108e0	-0.09425521
199	0x3d9adbea	0.075614765
200	0xbcb8f001	-0.02257538
201	0xbb38aad6	-0.0028177998
202	0x3deeccb8	0.11660141
203	0x3db605a3	0.08887794
204	0xbe887a78	-0.26655936
205	0x3e2c8600	0.16847992
206	0x3da02d5d	0.07821152
207	0x3d7706c3	0.060309183
208	0x3de2bc8d	0.110711195
209	0x3de6786f	0.1125344
210	0xbe348d86	-0.17632112
211	0x3d6dc91d	0.058053125
212	0xbebe017f	-0.37110516
213	0x3e2bacc9	0.16765131
214	0x3df54330	0.119757056
215	0x3dcd0bd3	0.10012021
216	0x3d91fe15	0.071285404
217	0xbe56099e	-0.20902106
218	0xbda3a27d	-0.079899766
219	0x3d051103	0.032486927
220	0xbe0d331a	-0.13789025
221	0x3e34cbe2	0.176559
222	0x3e0af22a	0.13568941
223	0xbca224ee	-0.019793
224	0x3d686946	0.05674102
225	0xbe509708	-0.20370114
226	0xbe23c275	-0.15992148
227	0x3deff333	0.117163084
228	0xbeba8946	-0.36432856
229	0xbd678372	-0.05652184
230	0xbd4db580	-0.05022192
231	0x3d6db619	0.05803499
232	0x3d6e683d	0.058204878
233	0x3e0df28a	0.13862053
234	0xbe875d8d	-0.2643856
235	0x3e15381d	0.14572187
236	0xbc193d33	-0.00935297
237	0xbe8cada0	-0.27476215
238	0xbe793745	-0.2433749
239	0x3e122a0e	0.14273855
240	0x3da54760	0.08070254
241	0x3e8833b7	0.26601955
242	0x3d427e52	0.04748375
243	0xbe421b04	-0.18955618
244	0x3da21652	0.079144135
245	0x3d3db7a2	0.046317704
246	0x3d97e5a6	0.07416849
247	0xbd6e955a	-0.0582479
248	0x3e5ec3a2	0.21754315
249	0x3e2525b3	0.16127662
250	0xbe96d100	-0.2945633
251	0xbea5f5d3	-0.32414111
252	0xbd4dd126	-0.050248288
253	0x3a93922b	0.0011258771
254	0x3e912190	0.2834592
255	0xbeb0f660	-0.3456297

model.3.bias f4 [32]
0	0x3d48c176	0.049012624
1	0x3d9f1fea	0.07769759
2	0x3d8864cd	0.06659851
3	0xbd467dad	-0.048459698
4	0x3d8f8bdf	0.070091
5	0x3e421b58	0.18955743
6	0xbe189641	-0.14901067
7	0xbce39c6d	-0.02778455
8	0x3d94114b	0.07229861
9	0x3d61f9a3	0.055169713
10	0x3e2312c2	0.15925124
11	0xbcf579b7	-0.029965265
12	0x3d065ffa	0.032806374
13	0x3e0dac94	0.13835365
14	0x3de6dd11	0.11272634
15	0x3e531caa	0.20616403
16	0x3db00f48	0.08596665
17	0x3e3f0e9e	0.1865792
18	0xbd7b34d2	-0.06132967
19	0x3dba19ff	0.090869896
20	0x3d8552dc	0.06509945
21	0x3df12805	0.11775211
22	0x3d3a3d2d	0.045468498
23	0x3d5a491e	0.053292386
24	0x3e0c547a	0.137041
25	0x3d44b188	0.04802087
26	0x3dba9449	0.091103144
27	0x3e442011	0.19152857
28	0x3e7558f1	0.2395971
29	0x3b0c6352	0.0021421504
30	0xbddd295e	-0.10798906
31	0xbdc318a9	-0.09526188

model.6.weight f4 [2, 32]
0	0x3dca6571	0.0988263
1	0xbe1433c7	-0.14472876
2	0xbe233072	-0.15936449
3	0x3e8a8d23	0.27060804
4	0x3e1494ef	0.14509939
5	0xbe939f34	-0.288324
6	0xbe5ab819	-0.2135929
7	0xbe6aecaa	-0.22941843
8	0x3ec13b3e	0.3774051
9	0xbec39899	-0.3820236
10	0x3eac58bd	0.33661452
11	0x3eab576b	0.33465132
12	0x3e87eca2	0.26547724
13	0x3e02b5ee	0.12764713
14	0x3e26c178	0.1628474
15	0x3eb5017e	0.353527
16	0xbe6dc6c5	-0.23220356
17	0xbea311fb	-0.31849656
18	0x3e33ae26	0.17546901
19	0xbedec696	-0.43510884
20	0xbe530cac	-0.20610303
21	0x3e517bfc	0.20457453
22	0x3e9f9e69	0.31175545
23	0xbd641253	-0.055681538
24	0x3e8839e7	0.26606676
25	0xbdc78522	-0.0974219
26	0x3e4b0b93	0.19828634
27	0xbe26b3b0	-0.16279483
28	0xbe1271f6	-0.14301285
29	0xbce3fc63	-0.027830308
30	0xbed8424c	-0.4223808
31	0x3e8103f6	0.25198334
32	0xbec76133	-0.38941345
33	0x3e7641c4	0.24048525
34	0x3e8a75f9	0.2704313
35	0xbd536ee0	-0.05161941
36	0xbe9bd6e7	-0.30437395
37	0x3e7a8760	0.24465704
38	0x3e8a01ab	0.26954398
39	0x3dd7c106	0.10534863
40	0xbe44afbf	-0.19207667
41	0x3e84c086	0.25928134
42	0xbebccaa9	-0.36873367
43	0xbe5cb2da	-0.21552601
44	0xbe9ff055	-0.31238046
45	0xbeb1d82c	-0.3473524
46	0xbe23b869	-0.15988316
47	0xbd25fbb2	-0.04052324
48	0x3de968c1	0.11396933
49	0x3cf49953	0.029858267
50	0xbe85ea0e	-0.26155132
51	0x3ecbcade	0.39803213
52	0x3e2565b0	0.16152072
53	0xbe5b9eed	-0.21447344
54	0xbe9c9c22	-0.3058787
55	0x3e78788b	0.24264733
56	0xbe869e19	-0.26292494
57	0x3e455155	0.19269307
58	0xbda5a8e2	-0.080888525
59	0x3e368d55	0.17827351
60	0x3e3e26f2	0.18569544
61	0xbe85ff60	-0.26171398
62	0x3e7fbf69	0.24975361
63	0xbe865743	-0.2623845

model.6.bias f4 [2]
0	0xbe261b8a	-0.16221443
1	0xbd1f9d4e	-0.038968377
