foolball_predict_model/models/pytorch_lightgbm_model.pth (torch, 60370 bytes, 14 tensors)

layer1.weight f4 [128, 34]
00000000: efde 003e 3ad3 093e dab9 a5ba 8bc1 223e
00000010: 5834 4bbd 2b35 6f3d 700e a3bd 8c28 403d
00000020: 1718 1c3e 39ec acbd 403a 533e 0b4d 023d
00000030: 6c51 163e 8e40 853d 5b87 133e 729d 263c
00000040: 7eb4 283e 62b2 3b3d 8366 acbd 100e 0f3d
00000050: 4fba 3d3c b891 f03d 696a 07be fa29 033e
00000060: c56c 64bd e98f 95bd a146 9b3c 59d3 d1bd
00000070: 0830 3a3b 6593 fdbd e850 263e 40d4 18be
00000080: bf0e 1b3e ffb7 013d 7461 fc39 2a79 2a3e
00000090: 4d6f 3bbd cf3e c23d 563f 42bb a2ea a8bd
000000a0: 1b19 6a3c db38 8ebd 007b 563d 9f0d 2f3e
000000b0: aaef c23d e367 0abd 4342 c23d 2e6f 4f3d
000000c0: 7bfb c63d e173 ccbd 7f28 17be d454 0cbe
000000d0: 20a9 cebd bfc2 073e d23b af3d d843 b13d
000000e0: d13b 163d ca01 35bd 5689 cf3d a1ea ccbd
000000f0: 2416 04bc 0806 29be e1e5 613d b474 5fbd
00000100: b57b 053d ebed 41bd 90ec 033e 1caa d5bd
00000110: 220e fbbd 1c60 f9bd 293f 3f3e 2400 a13d
00000120: acf2 263e 0a97 ebbd aebe 3cbe 8f92 15be
00000130: 5ff5 0abe d385 b23d 8e5e a23d 318a 0c3e
00000140: 580e b4bd 4b4e ecbd 8640 a53d 893a 80bd
00000150: 9c71 a93d fee0 803d 1f72 a03d 9f7f 15be
00000160: 6671 adbd d352 233d 2d49 c53c 9d3c fbbc
00000170: 1025 ff3d e556 e63d bf18 f8bd a734 bfbd
00000180: 2c83 203e e98d a8bd ed46 99bd 4f70 0bbe
00000190: 60df a1bd 82b6 513d 847c b7bc 4c00 f4bd
000001a0: b406 39bc b030 0fbe 86fc 12be d772 a6bd
000001b0: 5e9f 0bbe b4f4 cebd bb93 163e 5002 d03c
000001c0: 9d7f 0a3d 0402 39be 3bc2 05be 0260 31bd
000001d0: f38d 873c c932 11be 5348 05be ee42 b5bd
000001e0: a843 1e3d 0624 47bd 7078 2f3c fa34 b2bd
000001f0: 5a9e f8bd 84ce aabd 0079 a2bd e8f4 3bbe
00000200: 4f23 1b3e 402b 15bd 48b7 0d3e f6d4 5d3d
00000210: af98 30be d530 db3d 6a9a 32bd 502f a5bd
00000220: 32fd 9ebe 12f1 afbe 2eef 5d3e 55b3 653d
00000230: af70 cc3d 0035 babd 7c7a fc3d 366b 1ebe
00000240: 59fd 8cbc 7e1a 813d a80a 053e f48d 9f3d
00000250: 48e3 b33d 0470 e9bd c67a 463d 5d6f dbbd
00000260: ffdb a8bd ead8 293d 1a1e 703c e979 81be
00000270: 8f7b c63c 5d2e 4e3d c315 1e3d d590 1cbd
00000280: e58f 6f3e 34dc 923c 88d0 453d bb0f b3bd
00000290: 52d9 b03c 30a7 4cbd 2175 9bbd f29a ca3d
000002a0: fa57 8bbc 6289 04be 24c0 bbbd dc18 2abc
000002b0: 207f b23d 08b8 5bbd e72a c9bd f4ba 8bbd
000002c0: 2494 20be 7c9e 2d3d 21e1 0e3e cebb 15be
000002d0: 096c 05bc 7bf3 6e3d 159a 813d 3e66 4fbd
000002e0: 700b d23d 5747 bb3d e571 663c 245f 2f3c
000002f0: 61e1 2ebd e220 3e3d 8cbc 8bbc 5446 1ebc
00000300: 3ac1 293d ab3f 403e 6bce e2bc f019 2bbd
00000310: e852 4abc fd98 3aba ea67 563d 6350 df3d
00000320: 2f34 0cbe f859 8ebd 760c 293e 83c0 8a3d
00000330: da85 6a3c d95a 9ebd 1322 a4bd e814 19be
00000340: 56ad 6abd 405f 473d 2d70 133e f65e df3d
00000350: 3f3f 10be 0f0d debd ee6c 15bd 8007 ed3d
00000360: 3ff1 e63c c2fa b8bd 3bdf b83d 35d1 7ebd
00000370: 68a5 cfbd 830f 913d b563 acbd 8bde 9ebc
00000380: a18e ecbd 79cf 003e 3cca 073e 1fea 9c3d
00000390: 1257 a1bd 3d12 11be 07d7 08be b625 053e
000003a0: 6887 ce3d 0775 133e 9580 123e c22b 803d
000003b0: 2585 e63c 1add 06be 2809 9fbe 3bd6 a8be
000003c0: 721e 2a3e 2ee0 8e3a 5524 43bc a489 d5bd
000003d0: aeb7 76bd 4d9e 15be 7f8a eebd f615 a33d
000003e0: e0fb 043c 2231 053e 6268 1f3b 8fc1 41bd
000003f0: 7739 ad3c f87a 64bd 438f 86bd 952d 74bd
0.12585042 0.13459483 -0.0012643889 0.15894143 -0.049610466 0.058400314 -0.07961738 0.04691367
0.15243565 -0.084434934 0.2062769 0.031811755 0.14679497 0.065064535 0.14407103 0.010169374
0.16475102 0.045824416 -0.0841799 0.03492552 0.011580064 0.11746544 -0.13224186 0.12808982
-0.055767793 -0.07302839 0.018954577 -0.102453895 0.0028409977 -0.12381629 0.16241801 -0.14924717
0.15142344 0.031669613 0.00048137794 0.16647783 -0.04576044 0.09484636 -0.0029639802 -0.08247878
0.014288212 -0.06944438 0.052363396 0.1709504 0.095183685 -0.03379048 0.09485295 0.05064314
0.09715935 -0.0998304 -0.14761542 -0.13704234 -0.10090852 0.13257883 0.08556332 0.08655518
0.03667814 -0.04419116 0.101336166 -0.100056894 -0.008061919 -0.16506207 0.05515087 -0.054554656
0.03258868 -0.047346037 0.1288321 -0.104328364 -0.12258555 -0.121765345 0.18676437 0.07861355
0.1630351 -0.11503418 -0.18432114 -0.14606689 -0.13570164 0.08716931 0.07928191 0.13724591
-0.08791798 -0.11538371 0.080689475 -0.06261165 0.082736224 0.06292914 0.07834267 -0.14599465
-0.08468895 0.03987391 0.024082744 -0.030668551 0.12458241 0.112470426 -0.12114095 -0.093362145
0.15675038 -0.08230192 -0.07484231 -0.13617061 -0.079039335 0.051199444 -0.02239824 -0.11914119
-0.011293102 -0.13983417 -0.14354143 -0.08127373 -0.13635013 -0.10105267 0.14704792 0.025391728
0.033813108 -0.18067175 -0.13062374 -0.04330445 0.016547179 -0.14179529 -0.13015871 -0.088506564
0.03863874 -0.04861834 0.010709867 -0.08701511 -0.12139578 -0.08340171 -0.07933235 -0.18355143
0.15150188 -0.0364182 0.13839447 0.054158174 -0.17245744 0.10702673 -0.043604292 -0.08065665
-0.31052548 -0.3436361 0.21673271 0.056079227 0.0998243 -0.0909214 0.123280495 -0.15470585
-0.01721065 0.06303881 0.12992346 0.07790747 0.08783585 -0.113983184 0.04845693 -0.107146
-0.08245086 0.04146663 0.014655614 -0.25288323 0.02422884 0.050337184 0.038594972 -0.03822406
0.23394735 0.017927267 0.048294574 -0.08743235 0.021588001 -0.04996413 -0.075907 0.09892835
-0.017009724 -0.12943032 -0.09167507 -0.0103819035 0.087156534 -0.053642303 -0.09822636 -0.06822768
-0.15681511 0.04238747 0.13953067 -0.14622423 -0.008143433 0.05833767 0.06328217 -0.050634615
0.10256088 0.09144466 0.0140652405 0.010703836 -0.042695407 0.04641808 -0.01705768 -0.009660322
0.04144404 0.18774287 -0.027686318 -0.041772783 -0.012348868 -0.0007118134 0.052345194 0.109040044
-0.13691781 -0.06950754 0.1650866 0.06775 0.014314139 -0.077321716 -0.08014312 -0.14949381
-0.057294212 0.04867482 0.1439826 0.10906784 -0.14086626 -0.108423345 -0.036480837 0.11573696
0.028191207 -0.09032203 0.09026953 -0.062211234 -0.101389706 0.07083037 -0.08417455 -0.019393226
-0.11550642 0.12579145 0.1326074 0.076618426 -0.078779355 -0.14167114 -0.13363276 0.13002667
0.100844204 0.14400111 0.14306863 0.06258346 0.02813966 -0.13170281 -0.31061673 -0.32975945
0.16613176 0.0010900551 -0.011910518 -0.104266435 -0.060233764 -0.14611168 -0.1164751 0.07963173
0.008116692 0.13007024 0.0024323692 -0.047303732 0.021145565 -0.055781335 -0.06570294 -0.059613783

layer1.bias f4 [128]
00000000: d6d6 ed3b a5cb 003e 9c22 3a3c f962 ccbd
00000010: 1c12 7ebd 3adb 503d 1fa0 bbbd c04d 15be
00000020: 646b 22bd 4a39 ffbd 3518 a9bd 2630 7f3c
00000030: 5c06 6abd e602 3cbd 5897 843d 39d0 c0bc
00000040: 0dcd c1bd c8f9 6abd 1101 b3bd 6e9a bcbd
00000050: 0cdf bebd 4587 6dbc 5e3b 18be c619 d43c
00000060: b5d1 303e c3c9 21be 2e94 70bd 310d c9bd
00000070: d5c7 a03d eaed 5d3c 4776 e1bd deea f73d
00000080: ef7d 24bc 53df 4bbe 62b2 8f3d b0a6 9dbd
00000090: 8a6c b1bd 49cc 923d a114 a0bc 2499 0abe
000000a0: 02c1 083e eab8 17be bb81 b8bd 80f0 a83c
000000b0: 6208 ca3d f4aa 013e 2b0d 90bc 7106 b6ba
000000c0: de96 02be b8d2 83bd e234 d7bb 0eff 1f3d
000000d0: 9011 83bc 081a 953d b9e6 713d 4ea3 ea3d
000000e0: 84f4 61bd 96d9 0f3e 1f92 19be fcb1 d4bb
000000f0: 8a78 5fbc 026b 87bc 125a d83d 5773 71bd
00000100: 9ac6 063d 907b 21be 208d 96bd d3c3 d2bc
00000110: cdc0 32be 2028 57be f4da 42be f091 153e
00000120: 03a7 9dbb 77a5 03bd f1ba c03b 0999 46be
00000130: 516d 2ebe 2972 46be 095a 31be 4c6c de3d
00000140: cfe7 dcbd 7048 a6bd 55a6 20be de36 153d
00000150: 6fdc b2bd bb70 5dbe d3a9 a83d cdac a53d
00000160: 1ae6 00be c78a 993d cba0 86bc d7a0 3e3b
00000170: ec6a 1c3e 1bc0 b4bd 35f0 6e3e f0de 9c3d
00000180: 5d5d afbd ca61 bcbd 0070 32be 945b 783d
00000190: 1fa7 b2bd a8ef 1bbe 4b79 23be 6e0a 36be
000001a0: 108b 39be 0d1b fb3d f57a f03d 1a42 403e
000001b0: 5658 c6bd c3ca 20be 0d6c 38bd 30dd bbbb
000001c0: dea8 0bbe 645d f43a 870b dcbd 2632 1d3d
000001d0: e7ce 383e 7550 193c e9a4 3cbd 6402 c5bd
000001e0: 22f1 c6bc d37f bbbd 1634 9abd ff37 31bd
000001f0: 2a37 06bd a386 25be 7130 cfbd f00c a0bc
0.0072582765 0.12577684 0.011360791 -0.09979815 -0.06202899 0.05099032 -0.091614 -0.1458044
-0.039653197 -0.12462099 -0.0825657 0.015575444 -0.05713497 -0.0459012 0.06474179 -0.023536788
-0.094629385 -0.057367116 -0.08740438 -0.092091426 -0.093198866 -0.014497583 -0.14866397 0.025891196
0.17267497 -0.15799622 -0.058735065 -0.09816969 0.07850615 0.013545493 -0.11008888 0.12105344
-0.0100397905 -0.1990941 0.07016446 -0.07697809 -0.0866328 0.071678706 -0.019541087 -0.13534981
0.13354877 -0.14816633 -0.09009119 0.020622492 0.0986488 0.1266287 -0.017584404 -0.0013887418
-0.12752864 -0.06436676 -0.0065675834 0.0390616 -0.015999585 0.07280356 0.059057925 0.11456929
-0.05516483 0.14047846 -0.14997147 -0.006490944 -0.013639579 -0.016530517 0.105640545 -0.058947887
0.032904245 -0.15769792 -0.07351136 -0.025728142 -0.1745636 -0.210114 -0.19028836 0.14606452
-0.004811169 -0.03214022 0.00588166 -0.19394316 -0.17033888 -0.19379486 -0.17319502 0.108605
-0.107864015 -0.08119285 -0.1568845 0.03642928 -0.087334506 -0.21625035 0.082355164 0.080896
-0.12587777 0.07497173 -0.016434094 0.0029087567 0.15275162 -0.08825704 0.23333819 0.076597095
-0.085627295 -0.09198339 -0.17425537 0.06063421 -0.08723282 -0.1522814 -0.15964238 -0.17777416
-0.18119454 0.12261019 0.11742202 0.18775216 -0.096848175 -0.15702347 -0.04502492 -0.0057331547
-0.13638636 0.0018643555 -0.10744386 0.038377903 0.18047677 0.009357561 -0.046055708 -0.096195966
-0.024284903 -0.0915524 -0.07529466 -0.043266293 -0.032767452 -0.16164641 -0.10116661 -0.01953742

bn1.weight f4 [128]
00000000: ad3a 7e3f b874 7b3f 653a 793f 4adb 7c3f
00000010: b650 873f dc0f 7e3f 374d 7f3f 4304 843f
00000020: 686f 843f 892a 7f3f f765 7b3f 0ae8 803f
00000030: c281 7b3f 4e66 7b3f 0bf0 803f 388b 883f
00000040: 53e1 773f 8165 783f 98cb 7d3f e470 7f3f
00000050: 8c6b 823f 425d 823f 5e1b 833f 220a 873f
00000060: 08ab 823f fef1 7d3f c5be 803f 3daf 813f
00000070: 2ce5 823f c6a6 803f 8ac9 783f 8741 813f
00000080: be70 883f 3234 863f b76a 843f 3b2d 7f3f
00000090: e23b 823f 6e0a 7a3f 118f 7e3f bb5e 803f
000000a0: e07a 7c3f 7e07 853f 37a8 833f 3f3f 833f
000000b0: 8169 813f 88c3 7e3f 96d0 7c3f 6662 7b3f
000000c0: f94a 813f d153 7f3f aab0 7c3f 5489 803f
000000d0: 937e 7d3f 8012 753f 6def 813f d352 7d3f
000000e0: 475f 803f f038 803f 2853 7c3f 0adb 793f
000000f0: a56b 843f 99a4 7f3f c784 7c3f 865f 7f3f
00000100: 2da3 813f 717d 7b3f 8de7 7c3f e32c 843f
00000110: e05a 803f 0c91 7e3f 8711 853f dadb 813f
00000120: 2603 813f 7d04 783f aa13 7c3f f482 853f
00000130: 71f4 823f 1518 813f 902e 803f 2257 7f3f
00000140: d1fa 753f c745 7a3f bb23 753f 8f4f 783f
00000150: 68df 823f 24e9 843f 1906 793f 675c 833f
00000160: 2644 7d3f 9bd9 7e3f 127d 823f 2ee5 853f
00000170: 00df 7b3f e453 853f aa5f 7f3f 2201 783f
00000180: cec3 823f f95e 7f3f 4386 853f 4802 7f3f
00000190: d4e8 7a3f fde6 7d3f f916 833f a798 7f3f
000001a0: 8a77 863f 15d1 823f 588c 7b3f be7e 843f
000001b0: b10c 7a3f 3446 803f f6da 7c3f 2b4f 823f
000001c0: f20c 813f 6748 7e3f 5c82 833f 23cc 843f
000001d0: d84c 7b3f 7940 763f 0c89 893f e7f9 7e3f
000001e0: 176d 893f 2a2b 7f3f 934c 823f b0b6 7d3f
000001f0: 265f 813f 2650 7f3f 0ee3 7b3f b45c 7b3f
0.9930828 0.98224974 0.9735473 0.9877211 1.0571506 0.9924295 0.99727196 1.03138
1.0346498 0.9967428 0.9820246 1.0070813 0.9824487 0.9820298 1.0073255 1.0667486
0.9682819 0.9702988 0.99138784 0.9978163 1.0189071 1.018471 1.0242727 1.0549967
1.0208445 0.99197376 1.0058218 1.0131603 1.0226188 1.0050895 0.97182524 1.0098122
1.0659406 1.0484679 1.0345067 0.9967839 1.0174525 0.97672164 0.9943705 1.002891
0.9862499 1.0392911 1.028571 1.0253676 1.0110322 0.99517107 0.98755777 0.9819702
1.0101005 0.9973727 0.9870707 1.0041909 0.9902126 0.95731354 1.0151192 0.98954505
1.0029076 1.0017376 0.98564386 0.9759985 1.034535 0.9986053 0.986401 0.9975513
1.0127922 0.98238283 0.9879082 1.0326198 1.0027733 0.99440074 1.0395974 1.0145218
1.0079086 0.9688185 0.98467505 1.0430589 1.0230848 1.0085474 1.001421 0.9974233
0.9608584 0.9776272 0.95757645 0.96996397 1.0224428 1.0383649 0.9727493 1.0262574
0.9893211 0.9955079 1.0194418 1.0460565 0.98387146 1.0416226 0.99755347 0.9687673
1.0216005 0.9975429 1.0431598 0.99612856 0.9801152 0.99180585 1.0241386 0.99842304
1.050523 1.0220057 0.9826102 1.0351179 0.97675616 1.0021424 0.9877161 1.018041
1.0082076 0.9932923 1.0274158 1.0374798 0.9816413 0.9619213 1.0744948 0.9960007
1.0736417 0.9967524 1.0179619 0.99106884 1.0107162 0.9973167 0.9839333 0.9818833

bn1.bias f4 [128]
00000000: cede 0fbd 0654 533c 43a8 093c 4758 bbba
00000010: 1c15 02bd b5a8 31bc d7ee d4bc 3be2 2a3c
00000020: b324 983d 3d15 5bbc 2b63 efbc 7e23 1ebd
00000030: 2b36 eebc 4366 013d 1e3a 4cbd f1d6 a0bd
00000040: dc01 693c 3fdb 87b8 41ac 453c 1b60 d8bb
00000050: 5714 7d3d d05f fd3c 5981 d8ba 4104 3fbc
00000060: 4d69 f03b 09c0 073a 4e87 8a3d 2d30 1c3c
00000070: 4a53 4b3b 0978 b43b 9849 8cbc 41f6 1ebd
00000080: b672 5fbd 16a9 1ebd 68a7 763d 796b 503d
00000090: 6738 75bd 3fd6 b7bb 185a a23c d149 1fbd
000000a0: 05e4 163d 9027 da3c f100 15bd 0e0e f3bc
000000b0: 76b2 88bd 825d 953d 7dc3 85bc a15f 883d
000000c0: 7d54 04bc 4b99 803b 6403 0d3d d52f d1bb
000000d0: 9274 753d 247c 0d3d 458a 46bd d7ca da3c
000000e0: 43aa 0cbd 7b97 e33a 9956 bf3c 1611 253d
000000f0: aefe 05bd 2bb9 37bc c7e9 643c bc59 f33a
00000100: 208c e1bc ce74 bbbc d250 613c b019 7ebc
00000110: 54a5 afbc b8ef 19bd 546f 78bd 8666 053b
00000120: d7e8 523b 999f 99bc 6530 c7bb 3742 6cbc
00000130: 96ec 25bd a513 1bbd d202 e23c d066 d8bc
00000140: 1a4c 113c 6721 eb3c 023d 40bd b35a babc
00000150: b010 ecbc eb5a e5bc c66f 9cbd e8a6 be3c
00000160: df07 32bd a210 9d3b 4c57 1d3c 9853 db3c
00000170: c70b 073d 0a3f 5bbd f18b 61bd 9858 173d
00000180: a656 f33b 518a 3b3c b6bb 883c 6e91 d2bc
00000190: 9d98 873c 1178 65bd 694b adbc 4eff 99bd
000001a0: d039 3fba 9ce0 e0bc 7454 473d 6d40 2d3d
000001b0: f425 2cbc 0578 60bd 0cfd 833d 15ce 333d
000001c0: a6a7 98bc 7f75 4abd 0320 8bbb 7031 983c
000001d0: f484 cfbc d23c 83bd 5c68 a53c d5b3 123d
000001e0: 7032 6cbc 50ac a23b f04a c6bb 8136 0dbb
000001f0: edcf 1f3c 85da 633c bebc 1b3d e795 50bb
-0.035124592 0.012898451 0.008401933 -0.0014293276 -0.031758413 -0.010843446 -0.025992794 0.010429914
0.07428875 -0.013371763 -0.029222092 -0.038608067 -0.029078564 0.031591665 -0.049860112 -0.07853497
0.014221635 -6.4781394e-05 0.012064994 -0.0066032535 0.061786976 0.030929476 -0.0016518041 -0.011658729
0.0073367716 0.0005178457 0.067640886 0.00953297 0.0031024986 0.0055074734 -0.017124936 -0.038809065
-0.054552756 -0.03873547 0.060218245 0.050883744 -0.059868243 -0.005610257 0.01981835 -0.038888756
0.03683855 0.026630193 -0.03637785 -0.029669788 -0.06674664 0.07293226 -0.016328568 0.06658865
-0.008076784 0.003924524 0.03442706 -0.006383876 0.059925623 0.034542218 -0.048471708 0.02670805
-0.03434206 0.001736387 0.023356723 0.040299498 -0.032713585 -0.011213581 0.0139717525 0.0018566172
-0.027532637 -0.022882845 0.013752179 -0.015509054 -0.02144114 -0.03758213 -0.060653046 0.0020355298
0.003218224 -0.01875286 -0.006078767 -0.014420084 -0.04050883 -0.03786053 0.027589235 -0.026416212
0.008868242 0.02870245 -0.04693318 -0.022748327 -0.028816551 -0.027997455 -0.076385066 0.023272946
-0.043464538 0.0047932426 0.009603333 0.026773259 0.032970216 -0.053526916 -0.0550651 0.036949724
0.007426101 0.011446551 0.01669107 -0.025704112 0.016552264 -0.056022707 -0.021154122 -0.07519399
-0.00072946865 -0.027450852 0.048664525 0.04229777 -0.010507096 -0.05480196 0.06444749 0.043897707
-0.018634629 -0.04942846 -0.0042457595 0.018578261 -0.025331952 -0.06408085 0.020191364 0.035816032
-0.014416322 0.004964389 -0.0060514137 -0.002154738 0.009754163 0.01390708 0.038021795 -0.003182763

bn1.running_mean f4 [128]
00000000: 5700 e33f 1cd0 963f c888 e4be df0b 10bf
00000010: 6e00 2ebf 85e5 b03c 1f9b 60bc b8d8 4abf
00000020: 5d58 d23e 810e 03be 601e 5bbe 4a75 65be
00000030: a78c bdbe 1eba 4c3f a64b 3abe d2cb 0ebf
00000040: 6da3 853f 077e 393d 3130 1abe e8c5 bb3c
00000050: 4dff 633f d85e 663f 80f0 6f3d aa1c 843e
00000060: 7dc8 833f 3fa1 393f 395f 483f a63f d4bc
00000070: 592c 943f 0db3 e9be 52d1 0dbf cf15 9b3f
00000080: e927 dbbe 942f 1bbe fae9 6d3f 8591 8fbe
00000090: 1cd7 c13d ad4e 183e dbed 033f 19a7 473f
000000a0: 8f4a c73e 91c5 94be 979b f3be 392e 4e3e
000000b0: 3d97 88bd 759a 8f3f 0d71 8dbe 0fd5 5cbe
000000c0: 0683 05be afb7 00bd 97e3 2c3f e1cf 553f
000000d0: afe5 2b3f d52d d43e 35a0 953e 6b53 3d3f
000000e0: c937 963e fe64 073f 4aa5 a4be 1a9a afbe
000000f0: 1752 aebe 79df 56be f523 923f ec48 a63f
00000100: 8ffd b7be c042 6a3e f475 7dbe fdcf bcbe
00000110: 03ac 113f 9c81 6cbc 4a05 20bf 6d11 1b3e
00000120: b12b 643f cd03 0d3f 3d16 b03e f0d2 97bd
00000130: cd79 493f fc3b c5be 6be5 3ebf c13b d33e
00000140: 754c d13e 9e8c 9dbe e21b 233f 3169 e73e
00000150: 7c90 2ebe 6de1 0fbf 6377 b0be d034 37bf
00000160: 7951 7b3d 5f3e b03e 437b 473f eec8 263f
00000170: a96e de3e 1c59 9bbd 34b3 c33f 2a0c e7bd
00000180: cf25 3abf 755a 5b3e d742 f6be c202 af3d
00000190: 585e 35bf e3f9 993e 14dd 02bf b612 58bd
000001a0: a1d6 18bf 4d92 86be e156 293e 853e bc3f
000001b0: c5da 933e e633 aabe 886f 00bf f421 32be
000001c0: ae48 9e3e 6ccd a43e 9f2b 823e 9780 923f
000001d0: 6208 0e3f 69a4 f93e ba70 22bf 7949 493f
000001e0: 4ac1 06bf b0f2 323d 4229 a5bd 3c0e 833f
000001f0: d39b 813e bd80 8d3f e018 2bbe f99e 19be
1.7734479 1.178226 -0.44635606 -0.56268114 -0.67969406 0.021593818 -0.013708859 -0.79236937
0.4108304 -0.12798502 -0.21398306 -0.22408023 -0.37021372 0.7997149 -0.1819292 -0.55779755
1.0440499 0.045286205 -0.15057446 0.022921517 0.89061433 0.8998847 0.058578968 0.2580312
1.0295559 0.72511667 0.782703 -0.025909256 1.1576034 -0.45644417 -0.5539752 1.211603
-0.42803887 -0.15154868 0.92935145 -0.2804071 0.09464857 0.14873762 0.51534814 0.77989346
0.3892407 -0.2905698 -0.47579643 0.2013482 -0.066694714 1.1219012 -0.27625313 -0.2156565
-0.13038263 -0.031425174 0.67534775 0.83520323 0.67147344 0.41441217 0.2922379 0.7395541
0.29339436 0.52888477 -0.32157356 -0.34297258 -0.34047005 -0.20983686 1.1417223 1.2991004
-0.35935637 0.22877026 -0.24752027 -0.36877432 0.56903094 -0.014435198 -0.6250807 0.15143366
0.8912917 0.55083925 0.34391966 -0.0741328 0.7870148 -0.38522327 -0.74568814 0.41256526
0.40878645 -0.30771345 0.6371442 0.45197442 -0.17047304 -0.5620335 -0.34466085 -0.7156496
0.061356995 0.34422585 0.7792246 0.65150344 0.43443802 -0.07585356 1.5289063 -0.11281617
-0.7271394 0.21421225 -0.4809787 0.08545448 -0.7084708 0.3007346 -0.5111859 -0.05275222
-0.597025 -0.26283494 0.16537048 1.470658 0.28877845 -0.3324272 -0.50170183 -0.17395765
0.30914825 0.32187974 0.25423905 1.1445493 0.5548154 0.48758247 -0.6345326 0.78627735
-0.52638686 0.043688476 -0.0806451 1.0238719 0.25314197 1.1054913 -0.16708708 -0.1500205

bn1.running_var f4 [128]
00000000: ecca 2e3f f990 203f 3efe a13e 2f0b 4f3e
00000010: d7ac 963d 4636 403e bcbe c53e ef89 043d
00000020: b15f b83e f38a a63e 1d6b 353f e916 803e
00000030: e779 a33e 9028 cd3f 5bc8 ba3e ea04 0f3e
00000040: f3dd e63e 22f0 343f efb9 793e 527f 433f
00000050: 27ef ed3e 9859 703f c6c3 433e 802b ca3e
00000060: be12 013f 3d68 503f 150c 943f 6d31 463f
00000070: b2a4 bb3f dc06 863d fdbb 6f3d 36bb 0f3f
00000080: 56bb 623e 15df 063f e9ff 593f 8d2b a03e
00000090: a719 553e fbd3 373f 0325 db3e 70a5 943f
000000a0: 4267 523e 1399 1c3e 9c5c 743d 24e8 d03e
000000b0: c9aa 543e b619 3c3f 800c 103e c152 bb3d
000000c0: fffe 343e 70af f73e bef6 803e 5e48 f13f
000000d0: c0cf 373f acf1 f43e c4e4 c43f bf53 1640
000000e0: c47b 5c3f 825c e03e b365 393e 01d2 a83d
000000f0: 710d e43d 9623 bc3d 382b 6a3f db1b c53f
00000100: ca1f e13d 47d6 683f 53cc 1f3f 5f8f 883e
00000110: e84c 4e3f 4af1 453e 3d92 803e dca8 703e
00000120: 3ea9 da3f 2537 6a3f 0165 db3e e414 073f
00000130: 4277 043f f152 ba3e 0bdc 8d3d 6da9 683f
00000140: eac6 193f 117c 913e 2f25 583f 2435 a43f
00000150: 3c3c 2d3f d27c 593d 57f5 303e 0f2b 2d3d
00000160: faad 233f 532c d83e b46f 0e3f 41fb e33e
00000170: 8398 fb3e 84a4 3b3f fd94 ff3e 6d7d 803e
00000180: f42e 063d 0d6d a83e ca2d 2c3d 133f 153e
00000190: 351e 453d 4a84 613f f57e 833d f0c3 5d3f
000001a0: 225a 473e f746 ef3e ea63 433e aaf7 3b3f
000001b0: 39d9 6b3f 6258 7c3e f0a5 853e f3c2 da3e
000001c0: 6fc3 9f3e 7862 953f e5d1 c73e d75b 643f
000001d0: 56f4 183f 0de9 f33f fdb4 983d 815c 6a3f
000001e0: 10df 603d 28ef 3b3f 31c1 463e d148 a33f
000001f0: dab6 693e ae38 363f 3f74 733e 37b7 283f
0.68278384 0.6272121 0.31639284 0.2021911 0.07357185 0.18770704 0.3862208 0.032358106
0.36010507 0.32527885 0.70866567 0.2501748 0.31928942 1.6028004 0.36480984 0.13966718
0.4509121 0.70678914 0.24387334 0.7636615 0.4647152 0.9388671 0.1911765 0.39486313
0.50419223 0.81409055 1.1566187 0.7741917 1.4659636 0.06544277 0.05852889 0.56145036
0.22141775 0.52684146 0.8515611 0.31283227 0.20810567 0.7180783 0.42801675 1.1612988
0.20547202 0.15292768 0.05965863 0.4080211 0.20768274 0.7347673 0.14067268 0.091466434
0.17675398 0.48376036 0.2518825 1.885021 0.71801376 0.4784063 1.5382314 2.3488615
0.8612635 0.43820578 0.18105201 0.0824318 0.11135376 0.09186475 0.91472197 1.5399126
0.109923914 0.9095196 0.6242115 0.26671883 0.805861 0.19330326 0.2511157 0.23501915
1.7082899 0.91490394 0.42850497 0.5276625 0.51744473 0.36391404 0.069267355 0.90883523
0.60069144 0.28414968 0.8443174 1.2828717 0.67670035 0.053097554 0.1728109 0.042277392
0.6393734 0.42221317 0.55639195 0.4452763 0.49139795 0.73297906 0.49918357 0.25095692
0.03275962 0.328957 0.042035855 0.14574842 0.04812451 0.8809248 0.064206995 0.866271
0.19467977 0.4673383 0.19081083 0.7342478 0.9212833 0.2464309 0.26103163 0.4272686
0.31203791 1.1670675 0.39027324 0.89202636 0.5974783 1.9055496 0.07456396 0.915474
0.05490023 0.734118 0.19409634 1.2756597 0.22823659 0.71180236 0.23774813 0.65904564

layer2.weight f4 [64, 128]
00000000: f0d0 d7bc 88a1 afbd 9a41 473d 10e9 5b3d
00000010: e54e e93b 23ca c83c 5708 863d 4e98 18bd
00000020: deef dcbd 9e9b 8c3c 2d8d 803c 4d5a 383d
00000030: 910f d9bc 23eb 103d 70b3 9a3d 0878 d43b
00000040: 778f ccbc d250 83bd cb01 12bd 744d 763d
00000050: d83d 93bd c834 d8bc afcd 7c3d dbbd 0639
00000060: 9146 02bd d2b8 0bbd f6e8 8dbd ce69 083c
00000070: 023e 02be d0d2 623d 5e54 bebc e36e cdbc
00000080: 8b46 063d 67bd ab3d 5a6d dabd e710 bfbd
00000090: 8739 16bd 0eda 3cbd 104c 37bd 7974 403d
000000a0: 657a aabd 0f5d b8bd 7b27 adbd 3850 0dbd
000000b0: 2fa3 413d a2a0 90bd f6c3 49bc 0e84 3ebb
000000c0: 95cb efbc 3723 3a3d 4dbe 26bb 17ac 9f3d
000000d0: 81bb b1bc c3c6 8e3d e534 7d3d 5a74 f63c
000000e0: 93e0 473d 5705 4cbd 0e2d 67bd 0b3b 5f3c
000000f0: e143 453d 1fce ae3d 27c8 a3bc c1af 20bc
00000100: 00ea 713d 3d7c a63c 6b25 953d 4d47 01bd
00000110: cf6c 39bd a00f 46bc bd78 8f3d a562 babd
00000120: 2570 21bd 7765 913d add8 98bc 9de4 a63d
00000130: 1096 88bc 8678 babc a013 7bbd 40ed 59bd
00000140: a3b4 82bd c07f e83c ab49 8a3c 7ae9 7cbd
00000150: fca2 e73d 6b41 663d 3487 003d d5db 18bd
00000160: 4be0 893d c430 9ebd 460f 073d 37f9 a0bd
00000170: 1501 153d 2159 b8bc 2146 2b3d dc8f 41bd
00000180: 2181 adbb 2687 73bc 616d 82bd 7b5f f4bc
00000190: 4175 1bbd 61bf 34bc 21b1 4d3d 4464 a538
000001a0: 601b 093e c102 a2bc 0169 27bd 8ba5 34bd
000001b0: a936 2bbc dd6b 3a3d cd74 943d fab2 223d
000001c0: 7517 a7bd 512b 1dbd e7e1 78bc 05cb cebd
000001d0: 378e 123d 71f1 843d f0d3 e03d 77fe 11bd
000001e0: 7f6f 8c3c b969 3ebd c722 9c3b a4ee 9b3d
000001f0: 14f9 66bd d854 2dba 74a8 64bd 77c0 7f3b
00000200: b91b ba3b c661 96bd 9c40 6cbb f1a2 4fbd
00000210: 1a29 38bd 1195 9e3d 660c 9e3d b2ce abbc
00000220: 1009 a3bd a843 9ebd 2dae 803b 5a1f 16bd
00000230: 5909 a43d b058 b8bd a34d 0d3c 55c2 ddbb
00000240: 7a41 13bd 1d66 bc3d ddbf ed3c 2ba0 7e3c
00000250: e78b bcbd 0da5 153d 2d64 7e3d 1977 9b3d
00000260: 9ee3 8bbc 409f f5ba c248 69bd 5026 8c3d
00000270: dfad ae3d 2dae af3d 2d75 4fbd 1dc9 4d3d
00000280: bd56 82bd fc3b a63d 7e7c 723d fabd a4bd
00000290: 87da 54bc 9cdd ec3c 452f c4bd a62c 043e
000002a0: f680 ac3d 09f9 bb3d 7f62 afbb a063 a9bd
000002b0: 74fb b0bd 4900 3c3d 7f1a 87bd 2792 e73d
000002c0: ca75 b23d 9eb6 143c fb7e 0cbd 514c 3e3d
000002d0: 7eae 9e3d 3c5d 98bc 47b0 13bd e7ed abbc
000002e0: f006 3f3c eb27 d8bd 2dab 293d 1933 8a3b
000002f0: c4bf a33c af6d 15bd 1843 72bd 9fd3 5f3d
00000300: 95ec ae3d 295a af3c e40d 363c 4320 e93c
00000310: cb46 cb3d 8fd9 533c 9f41 16bd 2511 a93c
00000320: 4bfb d4bc 2ab4 033c 9109 40bd e943 8039
00000330: 68dd 0dbc bab4 62bd a471 553d df30 dd3d
00000340: 335f b3bd 99b1 7c3b f0a8 a1bd 038b 9a3c
00000350: d373 5a3d dd7d 76bc fec6 423d dc01 86bd
00000360: d178 c93d a814 e3bc c4e6 7a3d 1016 b6b9
00000370: 673b 8b3d 6a78 e73c 083e 803d ff48 fd3b
00000380: 5e58 fa3c 67cc af3b ab79 91bc a647 e63d
00000390: f732 f33c e040 a1bc 1d22 e63d 73cb 593d
000003a0: 3d03 cbbd 41c2 113d fbdd 8cbd f53e 14bd
000003b0: 5e74 603d b6d7 ca3c ce12 c1ba fa7f 843d
000003c0: 740c fd3d 26ad 9b3d ffff a2bd d2f8 23bc
000003d0: 1a06 a2bb b0bb 0a3d d60b 3fbd 8521 23bc
000003e0: 1e9c fd3c 6e41 00bd 3324 8abd f305 a43d
000003f0: 967d 21bc 8b67 853d e24f 0ebe 0b51 47bd
-0.026344746 -0.085757315 0.048646547 0.053689063 0.0071200007 0.024510449 0.065445594 -0.037254624
-0.107879385 0.017164048 0.015692318 0.045007993 -0.02649668 0.035380494 0.07553756 0.0064840354
-0.024970753 -0.064118996 -0.03564624 0.06013246 -0.0718953 -0.026392356 0.061719593 0.00012849963
-0.03180558 -0.034111805 -0.069291994 0.008326007 -0.12718967 0.055376828 -0.023233589 -0.025077289
0.03278212 0.08385735 -0.106653884 -0.09329396 -0.036675956 -0.04610639 -0.044750273 0.046986077
-0.08324126 -0.090021245 -0.08454796 -0.03450033 0.047274765 -0.07061888 -0.012314787 -0.002907041
-0.02927188 0.04544374 -0.0025443018 0.077964954 -0.021695854 0.069715045 0.061818022 0.030084778
0.048798155 -0.04980978 -0.056439452 0.013624917 0.048160437 0.08535408 -0.019992901 -0.009807528
0.05906105 0.020322913 0.072825275 -0.03156214 -0.045269784 -0.012088686 0.07005451 -0.09100846
-0.03941359 0.07099431 -0.018658007 0.08149073 -0.016673118 -0.022762548 -0.061298013 -0.053204775
-0.0638211 0.028381228 0.01688083 -0.061746098 0.11310384 0.05621473 0.03137894 -0.037319023
0.067322336 -0.07724145 0.03297355 -0.07860034 0.036377985 -0.022503437 0.041814927 -0.047256336
-0.0052949344 -0.014863765 -0.063685186 -0.029830685 -0.03795362 -0.011031956 0.05021775 7.886489e-05
0.13389349 -0.019776704 -0.040871624 -0.044103187 -0.010450044 0.045513023 0.072488405 0.039721467
-0.08158771 -0.038371388 -0.015190578 -0.10097317 0.035780158 0.06491364 0.10977924 -0.035643067
0.01714301 -0.046487544 0.004764888 0.076138765 -0.056389883 -0.0006612069 -0.055824712 0.003902463
0.0056795743 -0.073428676 -0.0036049252 -0.050692502 -0.044961073 0.07743276 0.077172086 -0.020972583
-0.07960713 -0.07727748 0.0039270134 -0.036650993 0.080095954 -0.09001291 0.008624467 -0.006767551
-0.035951115 0.09199164 0.029022152 0.015541117 -0.09206372 0.036534358 0.062107254 0.075910755
-0.01707631 -0.0018739477 -0.056954153 0.06843245 0.08529257 0.08578143 -0.050648857 0.050240625
-0.063642 0.0811691 0.059200756 -0.08044048 -0.012991554 0.028914265 -0.095793284 0.12907657
0.08423035 0.09178359 -0.005352318 -0.08270955 -0.08641711 0.04589871 -0.065968506 0.11307173
0.08713873 0.009076742 -0.034300786 0.0464595 0.077481255 -0.018599145 -0.036056783 -0.020987464
0.011659369 -0.10554489 0.04142301 0.004217517 0.019988902 -0.036481556 -0.059146017 0.054645177
0.08541218 0.021405296 0.01111171 0.028457766 0.09925612 0.012930288 -0.036683675 0.020638058
-0.025998732 0.00803856 -0.046884123 0.0002446466 -0.008658744 -0.055348136 0.05211033 0.10800337
-0.08758392 0.0038558005 -0.078935504 0.018865114 0.053333115 -0.015044657 0.047553055 -0.065433234
0.09837497 -0.02771981 0.06125523 -0.00034730183 0.067984395 0.02825566 0.062618315 0.007729649
0.030559715 0.005364943 -0.017758211 0.112441346 0.029687388 -0.019684255 0.11236975 0.05317254
-0.09912727 0.035585646 -0.06878277 -0.036192853 0.054798476 0.024761062 -0.0014730336 0.06469722
0.12355891 0.07601385 -0.07958984 -0.010008054 -0.004944575 0.0338704 -0.046642147 -0.009956722
0.030958232 -0.0313124 -0.06745186 0.08008947 -0.009856602 0.0651389 -0.1389766 -0.048661273

layer2.bias f4 [64]
00000000: 4660 f0bd f1ed f7bd b64c e03c 5bfc 8dbd
00000010: e659 a83d 34eb 93bd dc7b 5abd fe93 56bd
00000020: f437 9fbd 38fe 81bd bd73 31be 92f3 90bd
00000030: e7f2 e63c a973 c03c 9c30 dcbd 90f1 02bd
00000040: 40c8 563d 6759 95bd aee8 54bd b1f3 08be
00000050: 7c3b 18be 12f0 b8bd a014 1bbd f051 3bbd
00000060: 9f06 033d 17c7 323d 0301 783d fc07 c53b
00000070: 8bd3 813d dab0 81bd beea db3c d778 dfbc
00000080: 8fd9 91bc 9242 9ebd 9611 6b3a e25f 573c
00000090: b4b0 193b 062b 18be e111 863c 06b4 103c
000000a0: 577b 2dbd cbc1 883c fe36 a3bd 77a4 87bd
000000b0: 71a2 c13d 2f09 f8bc b359 4a3c 3f99 4ebd
000000c0: 1b8e b63c d967 c1bd fcb5 76bd e618 c33d
000000d0: c2a8 8ebc 0c15 b03c 1f97 60bc 7518 11be
000000e0: 5074 983c ad8d cd3b fd38 6bbd 0079 bdbd
000000f0: 1b99 92bd 36b6 1e3c 0515 6abd f256 663d
-0.11737113 -0.121059306 0.027380329 -0.069328986 0.08220272 -0.07222596 -0.053340778 -0.05238723
-0.07774344 -0.063473165 -0.17329307 -0.07077707 0.028191997 0.023492651 -0.10751459 -0.031968653
0.052437067 -0.07292443 -0.051979713 -0.13374211 -0.14866441 -0.09030165 -0.037861466 -0.04573244
0.031988736 0.043646898 0.06054784 0.0060129147 0.06339177 -0.0633256 0.026845332 -0.0272793
-0.017803935 -0.07727541 0.0008967159 0.013145419 0.002345127 -0.14860162 0.016365947 0.008831983
-0.042353954 0.01669397 -0.07969473 -0.06623166 0.09454811 -0.030277817 0.0123504875 -0.050439116
0.022284558 -0.094436355 -0.060232148 0.095262334 -0.017414454 0.021494411 -0.013707905 -0.14169486
0.01861015 0.0062729926 -0.057427395 -0.092515945 -0.07158109 0.009686997 -0.057148952 0.05623526

bn2.weight f4 [64]
00000000: 22ed 713f 242b 743f 7c30 713f 5470 773f
00000010: a313 6c3f 6af4 7b3f c168 5a3f eadf 723f
00000020: 333f 793f 372d 7b3f 6dd4 683f b16a 723f
00000030: 0356 713f 6090 723f 10ad 733f b9b5 6a3f
00000040: 9bb1 713f d63d 783f 8fa4 7d3f 49ae 783f
00000050: 8cb5 743f 13b8 763f 4794 723f b040 783f
00000060: 41d5 723f f878 703f c9e1 763f b312 733f
00000070: ab94 6e3f 2327 793f 41a7 723f 651b 733f
00000080: e95b 673f e236 753f 4106 743f 1908 793f
00000090: 9c9e 733f d9f2 703f 8a6d 773f 67ca 6e3f
000000a0: 0648 743f 6d02 743f df09 733f 4ef2 6d3f
000000b0: 16c8 743f 41b5 683f c2b1 6f3f d469 6a3f
000000c0: 0f77 6e3f 847d 743f c076 753f 1a56 623f
000000d0: a848 5b3f dc33 6f3f d49e 703f d35a 713f
000000e0: 5c1f 753f e05f 723f d84f 653f e9f5 723f
000000f0: 0448 703f 4eeb 6d3f 0e74 743f 69b6 773f
0.9450246 0.9537833 0.94214606 0.96655774 0.92217463 0.9841982 0.8531609 0.94872916
0.9736206 0.9811587 0.90949136 0.9469405 0.9427187 0.9475155 0.9518595 0.91683537
0.9441163 0.96969354 0.9907922 0.9714094 0.9558952 0.96374625 0.94757503 0.96973705
0.9485665 0.93934584 0.9643827 0.9495041 0.931956 0.9732534 0.9478646 0.94963676
0.9037462 0.9578687 0.9532204 0.9727798 0.95163894 0.94120556 0.9665152 0.9327759
0.954224 0.953162 0.9493694 0.9294785 0.95617807 0.9090157 0.9363061 0.9156773
0.9315042 0.9550402 0.95884323 0.8841263 0.8565774 0.93438506 0.9399235 0.9427921
0.95750976 0.94677544 0.89574957 0.9490648 0.9385989 0.9293717 0.95489585 0.9676271

bn2.bias f4 [64]
00000000: d3ed 31bd 1faa 963d 3edb 423d 3259 443d
00000010: fa49 6dbd 83c1 41bd 36a6 0e3d c63c 463d
00000020: 9cfb a0bd e66f 5ebd f3e1 86bd 139c 813d
00000030: e3c2 3dbd 755c 6dbd 0639 563d 00fa 093d
00000040: 9fa1 1fbd babe 3dbd 5ba3 88bd 1031 76bd
00000050: 7cdd 7cbd 0f45 38bd 45af 42bd 6ff8 973d
00000060: bcb3 3dbd fd5d a43d fd1d 73bd acea 60bd
00000070: f745 563d 783f 5d3d 3a90 213d 2bdf 8a3d
00000080: a514 0f3d 40da 69bd cd7c 87bd 0c9a 873d
00000090: 73a3 7fbd e810 9bbd 77aa 713d f3d0 1d3d
000000a0: 9f6f 51bd d7f0 58bd 3929 78bd a33a 3fbd
000000b0: 3b86 8a3d e577 60bd 4d50 71bd bdb4 1c3d
000000c0: 82b8 383d 482e 683d 98ae 3bbd 1835 6a3c
000000d0: 3ce8 1ebc 7019 25bd bf87 2f3d 7ed9 8a3d
000000e0: f6af 863d efaf 09bd b419 9dbc bf44 38bd
000000f0: a652 27bd 8282 5fbd 68be 5e3d 23eb 5dbd
-0.043439697 0.07356667 0.047572367 0.047936626 -0.057931878 -0.047303688 0.03482648 0.0483978
-0.07860491 -0.054305933 -0.06586065 0.06328597 -0.046328437 -0.057949502 0.052300476 0.033685684
-0.038972493 -0.04632447 -0.066717826 -0.060105383 -0.06173466 -0.044987734 -0.04753043 0.07420432
-0.046313986 0.08025739 -0.05935477 -0.0549113 0.052312817 0.054015607 0.039444186 0.06780847
0.034931798 -0.057092905 -0.06615601 0.06621179 -0.062411737 -0.07571584 0.05900046 0.038529348
-0.05113184 -0.052964058 -0.060586188 -0.04668678 0.06763884 -0.05480184 -0.05891447 0.038258303
0.045097835 0.056684762 -0.045820802 0.014294885 -0.009698924 -0.040307462 0.042854067 0.067797646
0.06576531 -0.03361505 -0.019177295 -0.044987436 -0.040850304 -0.05456782 0.054380804 -0.054179322

bn2.running_mean f4 [64]
00000000: 8f05 3a3e 3852 b03c 6cbf 373e 996a c63e
00000010: 4f04 273e 316f b93e fea5 e83e 2840 213e
00000020: c8b8 2c3d 51a0 393e d69e 373e a56e 3c3e
00000030: 9740 123e af23 993e d166 1d3c 8ac5 803e
00000040: 4984 a73e e7b4 b23e 07a9 623e a412 9e3e
00000050: 0d36 403e 1fc2 6b3e 2507 2f3e 6410 fd3d
00000060: 4a1d 633e 385a ba3e abb3 283e 3549 d53e
00000070: fe03 b13e 34f4 f53d cf10 2b3e edf1 883e
00000080: ccbd b63e 3d9f e73d 64a5 193e 6e2f e63e
00000090: 167a 923e 2d62 293e 5cfb 873e fc47 9e3e
000000a0: 8026 a43e 90e8 863e e41e b93d 6163 843e
000000b0: ed7e 8a3e f73a 6d3f 17f4 453e 4577 f83e
000000c0: eea2 fc3d 4c3a 4a3e d0e0 a03e f0ba b53e
000000d0: 57ad 023e c755 253e 9f1c 3d3e 9ed3 013c
000000e0: 0c79 883e 3d8d f83d 876b 6b3e 0f83 b33d
000000f0: 3182 823e d3d8 803e aa3e 953e 9ad0 973e
0.18166183 0.02152358 0.17944115 0.38753203 0.16310237 0.36217645 0.45439142 0.1574713
0.04216841 0.18127562 0.17931685 0.18401583 0.14282452 0.29910037 0.009607033 0.2515071
0.32718113 0.34903643 0.22134791 0.30873597 0.18770619 0.2302327 0.17092569 0.12356642
0.22179142 0.36396956 0.16474788 0.41657415 0.34573358 0.12009469 0.1670563 0.26747075
0.3569168 0.11309669 0.15004498 0.4495806 0.2860877 0.16541357 0.2655896 0.30914295
0.32060623 0.26349306 0.09039095 0.2585707 0.27049962 0.926681 0.19331394 0.48528495
0.12335764 0.19748801 0.31421518 0.35494184 0.12761436 0.16146003 0.1846795 0.007923989
0.2665485 0.12136314 0.22990237 0.08765232 0.25489953 0.25165424 0.2914937 0.29651338

bn2.running_var f4 [64]
00000000: e65b 673f 8b92 f83e aea8 313f 6d4f e33f
00000010: 2ee0 1b3f 5d2b c53f 6754 0540 bb3d 383f
00000020: e40d 173f f55a 683f 6b8f 963f 11f2 1e3f
00000030: dc09 bf3e 406f 613f e12e cc3e 1f9c b33f
00000040: 8861 d33f 6538 dc3f 8328 8d3f 006c f33f
00000050: 6f19 b13f e793 983f 17fa 853f fde5 6b3f
00000060: e2ac 303f f1f8 b23f 4f03 db3e 2c1b c13f
00000070: 9a03 b83f f4b3 4f3f 508b 273f ead6 a43f
00000080: 068b bc3f c06c 103f feaf 0b3f 39cc e03f
00000090: c2b2 b73f e1f5 943f 5069 9c3f f101 ba3f
000000a0: b217 e23f 2a02 533f 93f2 063f 0b21 b53f
000000b0: 3290 2a3f 5851 ad40 fad9 293f a265 0140
000000c0: 325b e83e a53c 783f bf18 b33f 3fb8 a53f
000000d0: f1d5 0f3f d2a9 233f b885 733f 5252 1a3f
000000e0: d1a6 863f b3ad c33e eae8 913f 0ba7 2d3f
000000f0: 4df6 7e3f 698d 7d3f 127e b43f b683 823f
0.903746 0.48549303 0.6939801 1.7758614 0.60888946 1.5403858 2.0832765 0.71969193
0.5900557 0.9076379 1.1762518 0.62088114 0.3731221 0.8806038 0.39879516 1.4032019
1.6514139 1.720471 1.1027988 1.9017334 1.3835887 1.1920136 1.0466946 0.9214781
0.690138 1.3982221 0.42775962 1.5086417 1.4376099 0.8113396 0.6544695 1.2878087
1.4729927 0.5641594 0.5456542 1.7562324 1.4351428 1.1637536 1.2219639 1.4531842
1.7663481 0.8242518 0.5271389 1.4150709 0.66626275 5.4161797 0.6634823 2.0218282
0.45382077 0.96967536 1.3991927 1.2946852 0.56185824 0.63931 0.95125914 0.6028186
1.0519658 0.3821846 1.1399205 0.6783301 0.99594575 0.990439 1.4100974 1.0196445

layer3.weight f4 [2, 64]
00000000: 5ba3 6e3d 61e3 e0bc 4d7c 7f3d 3d6a 923c
00000010: de93 d33c 7315 213c d21d 033d 467c 9e3b
00000020: dc90 5cbc 6901 8cbd 0ee3 a03b 58af b03c
00000030: 62bf d4bc df9a e2bc e333 82bd e8b1 b33d
00000040: 107e 353c 294d a23d 22f4 d73d b7b5 073d
00000050: 7a5a 093d 9234 0f3d 8e2f b93c f617 77bd
00000060: e0e7 8d3c f1f0 32bc a38f e93c ef42 8239
00000070: a4b6 6ebc 9861 35bd 535b 1ebd fcb6 8a3c
00000080: eddc 293d 7578 b93b 2f51 783d a513 c5bd
00000090: dbc0 97bb da58 263d bb3b bcbd 2a0d 94bc
000000a0: 24b8 8cbc 4d06 89bd bec4 6abc 2806 8cbd
000000b0: a019 473d e54d b1bd bbe9 143d 3b15 b8bd
000000c0: 09a4 45bd b66c 92bd 2108 04bd 95f3 dd3d
000000d0: ce24 e43c 3853 7abd 36e6 95bd bc79 743d
000000e0: b4e3 ac3c a921 44bd bd39 3fbd dd0e 53bc
000000f0: adbe 8e3d 385d acbd f235 623c f226 563d
00000100: ffa2 fcbc 788b 71bb 0ad4 3f3d f58f 833d
00000110: b01b 8ebb 8aa8 5fbd 56ad 983c b664 003d
00000120: 49c3 1cbd ef2a e4bd 3d69 56bb 9eba 213d
00000130: 85d7 75bc 6b4f 81bd d96a f6bc 0516 cc3d
00000140: 27c7 32bd e12f 123d 9bac 863d d0ad 3c3b
00000150: 7edd 03bd d634 98bc 2229 f8bc 13dc bfbb
00000160: f1a4 4cbc 25f8 a73b ac8e fbbb 2369 23bd
00000170: bbd0 2d3d 1632 8a3c b87a 3c3c b854 c33c
00000180: 119d 493d 1e43 c7bb 9e6a 8539 31de 80bd
00000190: 2f20 8abd a589 0abd a1e2 54bd 9be5 2a3d
000001a0: 517b 93bd bc16 80bd 04a0 50bd 100c a3bd
000001b0: 71c0 8e3d 311e f2bd d4ae d6bc 311a 81bd
000001c0: 6ee5 06bd 8450 04bd 22f8 45bd 292e e63d
000001d0: 6aef 8e3c 626f 66bd a8e7 81bd 6c33 983d
000001e0: 4bbf 083d 6923 8bbd e16e 54bd f7f4 91bc
000001f0: 1e7a 533d f6d9 babd 782e 953d 1197 9a3c
0.058261257 -0.027452173 0.0623744 0.017872924 0.025827345 0.009831774 0.03201086 0.004836592
-0.013462272 -0.068362065 0.0049098795 0.021567985 -0.025970165 -0.027661739 -0.06357553 0.08774167
0.011077419 0.079248734 0.105446115 0.03313228 0.03353355 0.034962244 0.022605684 -0.060325585
0.01732248 -0.010921703 0.028510874 0.00024845402 -0.014569912 -0.044282526 -0.038661312 0.016932957
0.041470457 0.0056601116 0.060624298 -0.096228875 -0.0046311445 0.04061208 -0.0919108 -0.018072683
-0.017177649 -0.06690655 -0.014329134 -0.06837112 0.048608422 -0.08657435 0.036355715 -0.089884244
-0.04825214 -0.07149641 -0.032234315 0.10837475 0.027849581 -0.06111452 -0.073193 0.059686407
0.021104671 -0.047883663 -0.046685923 -0.012881962 0.06969962 -0.084162176 0.013806807 0.052283235
-0.030839441 -0.0036856811 0.046833076 0.06423942 -0.0043367967 -0.05460409 0.01863734 0.031346045
-0.038272176 -0.111410014 -0.0032716535 0.039484613 -0.015004997 -0.06313976 -0.030080246 0.099651374
-0.043646958 0.035690192 0.06575891 0.0028790124 -0.032193653 -0.018579882 -0.030293051 -0.0058550923
-0.012490497 0.0051260167 -0.00767692 -0.039895188 0.04243539 0.016869586 0.011503868 0.023844108
0.049222056 -0.006080999 0.00025447173 -0.0629238 -0.0674442 -0.033822674 -0.051973943 0.041722875
-0.07201255 -0.06254336 -0.050933853 -0.07961285 0.06970299 -0.11822165 -0.026206411 -0.06303824
-0.032933645 -0.03230335 -0.04833234 0.11239273 0.017448146 -0.056258567 -0.06343013 0.07431683
0.033385556 -0.06793863 -0.051863555 -0.017817004 0.051630132 -0.09123604 0.07284254 0.018870862

layer3.bias f4 [2]
00000000: 275d 96bc 3bc3 d63d
-0.018354965 0.10486456
